SDKChallengeProject/【不粘锅】一起吗2222/Together/Together/AlgorithmChanllengeProject/evaluation_Agora_0903/pre-train-model/baseline.pth (torch_old, 90541 bytes, 56 tensors)

model.0.weight f4 [12, 3, 3, 3]
0.08258763 -0.07350067 -0.022201745 0.0963604 -0.14743581 0.08643764 -0.032954626 0.10576631
-0.0030848172 -0.009420543 0.08143297 0.04948201 0.08679796 -0.033106852 -0.015077675 0.00045808003
0.047300223 -0.0068501593 0.13641018 0.053431094 -0.05017696 -0.11714408 -0.011227514 -0.097795084
-0.06802772 0.002145116 0.08168856 0.07392945 -0.19061461 0.068459734 0.02751324 0.14198163
0.105060644 -0.1790278 -0.20770931 -0.10164029 0.1564288 -0.012956047 0.053202923 -0.097628705
0.16275378 -0.08372566 0.15532008 -0.013990383 -0.094894245 0.095737524 -0.07567918 0.039129157
-0.051359978 -0.029459674 -0.17157635 -0.071090065 0.10462875 -0.025878819 0.16309434 0.13828264
-0.024636764 -0.15729234 0.09396451 0.05683714 -0.10442778 0.10559382 0.10899053 0.1469352
-0.0957628 -0.014703972 -0.038533464 0.021206714 -0.12515423 -0.11999147 0.094854094 -0.04221072
0.092074886 0.012373776 0.06101597 0.026657907 0.047757335 0.09027568 -0.13691497 0.09102162
-0.1327068 -0.15080297 -0.0105372425 -0.049727228 0.08739445 -0.14574617 -0.18222536 0.10704272
-0.071922146 0.08648029 0.06160096 -0.15415418 0.030643962 0.028728152 -0.15433429 -0.09744277
0.048340876 0.0037275136 -0.09557701 -0.038141113 0.1806996 -0.031764295 0.11554599 0.0783625
-0.11422506 -0.15541953 0.17862709 0.018500913 0.11344534 0.043440916 0.038109157 0.13269071
0.19983146 -0.14216982 0.008255556 0.13167886 0.108301744 0.11860656 -0.10866828 -0.14095315
-0.09721978 0.06728717 0.18990034 -0.10490404 0.11072565 -0.11539492 -0.16891804 -0.014077224
0.09138887 0.17521457 -0.0885905 0.027215663 0.15124698 0.12504718 0.09994956 0.09802945
0.10465861 0.05280408 -0.13038608 -0.14160062 -0.090812415 -0.025287896 -0.07704653 0.09683132
0.017329855 -0.048345555 0.10152034 0.024280563 0.09249572 0.09360062 -0.09739131 0.18235973
-0.022331119 -0.03419994 -0.17187163 -0.11012697 -0.116243534 -0.0774329 0.08390632 -0.07174219
-0.12753727 0.04504683 0.04770149 0.100422665 -0.06797205 0.04161785 -0.07478638 -0.03191295
-0.11870152 -0.04980076 -0.030425584 0.0389869 -0.0021976838 0.059330888 0.14193058 0.14091818
0.09860694 -0.014695469 -0.13648549 0.1479892 -0.06768013 -0.054014176 -0.16723925 -0.06046281
-0.16672775 0.1280086 -0.18090819 -0.1691867 -0.041370206 -0.088918656 0.08297313 -0.061701607
-0.062269773 0.027604403 0.14453602 -0.12805177 0.0914137 0.10485783 0.19458246 -0.12195344
0.055675015 -0.11230522 0.19086316 -0.05836784 0.1224684 0.022614477 -0.014408877 -0.008882177
0.03350746 0.104342565 0.048556466 0.07350685 -0.15022425 0.13183919 0.1657773 0.15644048
0.112247996 -0.12890026 -0.08398465 0.13863295 -0.14600483 0.16780253 -0.123773456 -0.11442512
0.09819479 -0.15168278 -0.033052396 0.14222015 0.13604002 0.18665133 -0.021504382 -0.11371786
0.20824791 -0.018469485 -0.11258609 0.043662753 -0.1495202 0.08681283 0.10674963 -0.15948671
-0.15142205 -0.023812877 0.067168035 -0.018370872 -0.09653309 -0.011720773 -0.19904618 -0.15046526
-0.14089943 0.10348421 0.13391249 -0.084087044 0.008788553 0.088092744 0.010093449 -0.08224067
00000000: b423 a93d 8587 96bd 6fe0 b5bc 9a58 c53d
00000010: 6af9 16be 3806 b13d 6efb 06bd 029c d83d
00000020: a52a 4abb 9f58 1abc 54c6 a63d a6ad 4a3d
00000030: 21c3 b13d 0d9b 07bd 5a08 77bc 762a f039
00000040: e1bd 413d 4d77 e0bb 1caf 0b3e 90da 5a3d
00000050: 5b86 4dbd 3ce9 efbd 9bf3 37bc ca48 c8bd
00000060: 1e52 8bbd 1395 0c3b 554c a73d 5368 973d
00000070: 7a30 43be 9e34 8c3d 7263 e13c a263 113e
00000080: 092a d73d 1053 37be c0b1 54be c928 d0bd
00000090: df2e 203e 9a45 54bc 4feb 593d 8ff1 c7bd
000000a0: eda8 263e 5c78 abbd 3a0c 1f3e eb37 65bc
000000b0: ea57 c2bd 0912 c43d b0fd 9abd e545 203d
000000c0: d75e 52bd 6a55 f1bc b6b1 2fbe ab97 91bd
000000d0: 9947 d63d d1ff d3bc 3402 273e f799 0d3e
000000e0: 0ad3 c9bc 3e11 21be 7770 c03d 10ce 683d
000000f0: 3bde d5bd 9341 d83d 6d36 df3d 2e76 163e
00000100: 491f c4bd eee8 70bc 44d5 1dbd b4b9 ad3c
00000110: 6e28 00be 16be f5bd dd42 c23d 26e5 2cbd
00000120: c291 bc3d 61bb 4a3c e2eb 793d af61 da3c
00000130: 329d 433d 75e2 b83d 7033 0cbe 8b69 ba3d
00000140: 4be4 07be 186c 1abe 66a4 2cbc c7ae 4bbd
00000150: ddfb b23d 7c3e 15be 4999 3abe 3739 db3d
00000160: eb4b 93bd 941c b13d 4a51 7c3d 98da 1dbe
00000170: 0c09 fb3c 4d57 eb3c cf09 1ebe 1390 c7bd
00000180: 1501 463d 4d49 743b e1bd c3bd db39 1cbd
00000190: 5109 393e 471b 02bd 60a3 ec3d 857c a03d
000001a0: d4ee e9bd 4c26 1fbe 05ea 363e 3a8f 973c
000001b0: 0856 e83d 1aef 313d 5918 1c3d 13e0 073e
000001c0: 9ea0 4c3e f794 11be 5042 073c d3d6 063e
000001d0: 4ecd dd3d ffe7 f23d 7a8d debd 0656 10be
000001e0: 2a1b c7bd dbcd 893d 3c75 423e eed7 d6bd
000001f0: 21c4 e23d 2c54 ecbd daf8 2cbe 28a4 66bc
00000200: 162a bb3d 736b 333e f06e b5bd 62f3 de3c
00000210: 7de0 1a3e 5e0c 003e 5bb2 cc3d aac3 c83d
00000220: 4157 d63d 1749 583d ee83 05be c1ff 10be
00000230: dcfb b9bd 9028 cfbc 92ca 9dbd 804f c63d
00000240: 57f7 8d3c fd05 46bd e5e9 cf3d 08e8 c63c
00000250: 656e bd3d afb1 bf3d 1875 c7bd 82bc 3a3e
00000260: c0ef b6bc 3c15 0cbd 1eff 2fbe 408a e1bd
00000270: 1711 eebd 2495 9ebd 14d7 ab3d 92ed 92bd
00000280: 2199 02be 0683 383d a362 433d 66aa cd3d
00000290: ee34 8bbd 7b77 2a3d 9a29 99bd 27b7 02bd
000002a0: c819 f3bd e2fb 4bbd 133f f9bc bab0 1f3d
000002b0: 0407 10bb f204 733d 4056 113e db4c 103e
000002c0: 6ff2 c93d 44c5 70bc dac2 0bbe 7b8a 173e
000002d0: e19b 8abd f83d 5dbd c440 2bbe daa7 77bd
000002e0: aeba 2abe b014 033e ff3f 39be 473f 2dbe
000002f0: ce73 29bd fc1a b6bd d1ed a93d d3ba 7cbd
00000300: 970e 7fbd a122 e23c 4001 143e 0120 03be
00000310: 1b37 bb3d b4bf d63d a040 473e bac2 f9bd
00000320: 7c0b 643d 4700 e6bd a271 433e 1e13 6fbd
00000330: b6d0 fa3d ff41 b93c 3613 6cbc 8d86 11bc
00000340: 1e3f 093d 8eb1 d53d 25e3 463d c28a 963d
00000350: 63d4 19be da00 073e 86c1 293e ef31 203e
00000360: 47e2 e53d 6efe 03be 2500 acbd ccf5 0d3e
00000370: 4a82 15be 6dd4 2b3e f07c fdbd b857 eabd
00000380: 5a1a c93d bb52 1bbe f361 07bd 29a2 113e
00000390: 134e 0b3e 8721 3f3e f529 b0bc e9e4 e8bd
000003a0: f13e 553e 514d 97bc 8993 e6bd b7d7 323d
000003b0: d31b 19be edca b13d 8d9f da3d 7c50 23be
000003c0: 620e 1bbe 3913 c3bc 658f 893d 837e 96bc
000003d0: 24b3 c5bd 7c08 40bc c3d2 4bbe 9113 1abe
000003e0: f147 10be 88ef d33d 5b20 093e d435 acbd
000003f0: ddfd 0f3c f869 b43d fe5e 253c cc6d a8bd

model.0.bias f4 [12]
0.084497325 -0.06723214 -0.10904012 0.03936485 -0.1499106 -0.05964782 0.0974942 0.08410043
0.15330255 -0.13810858 0.007736514 -0.06267203
00000000: ef0c ad3d 01b1 89bd 6d50 dfbd 093d 213d
00000010: 2a82 19be 4651 74bd 0aab c73d d93c ac3d
00000020: 58fb 1c3e 566c 0dbe 9582 fd3b 315a 80bd

model.1.sub.0.c1.weight f4 [12, 12, 3, 3]
-0.054889876 -0.08344594 -0.00040008983 0.00448051 -0.08345086 -0.077208616 -0.09568199 0.080308385
-0.0122925835 -0.051711433 -0.03364746 -0.071064994 -0.09788962 -0.13906518 0.041417573 0.013610632
-0.062381912 -0.043010887 -0.0025556823 0.12217757 0.025650496 0.09241969 -0.015145371 -0.007664021
0.0022327732 -0.060918372 0.03231014 0.013509046 0.030006947 0.025097793 -0.05898401 -0.029854452
0.02569386 -0.06484986 -0.1091784 0.02248846 -0.025901625 -0.040605325 0.050072502 0.02966416
-0.028814089 0.0968001 0.03933807 0.015278894 -0.026532495 -0.04680108 0.10433772 -0.026715161
-0.03173489 0.04804977 0.018635731 0.03348268 -0.044645313 -0.05107052 0.07852178 0.06732501
-0.025421938 -0.05625176 0.026002727 -0.06237589 0.06641221 -0.003477026 0.08696077 0.022029238
-0.059811 0.056369007 -0.01239465 -0.08052568 -0.026383506 -0.085072756 -0.05129893 -0.07954612
0.009078991 -0.066028066 0.009711472 0.07691991 -0.023220422 -0.106540896 -0.0008506298 0.078092486
-0.05071305 0.056260165 -0.0050899 0.0147094615 -0.03721675 0.123248905 0.0742982 0.0958377
-0.0028703108 0.009513465 0.0563673 -0.027953831 0.013833717 0.030426176 -0.07284039 -0.13181302
0.053124167 0.04584079 0.054335076 -0.056253932 0.06911208 0.042148698 0.094070606 0.0931661
-0.075472824 0.091634475 -0.0842513 0.050273843 0.029399049 0.07251615 -0.03084485 0.08640871
-0.014235979 -0.061366484 0.033824418 0.071070656 0.10859727 -0.038305085 0.07525072 0.041395705
-0.046807528 -0.11583494 0.025537094 -0.06436519 0.04589118 -0.09320472 0.10541398 -0.110923685
0.05499242 0.13546433 -0.2650277 0.0010223696 0.0830173 -0.1783627 -0.005487618 -0.011000853
0.038760986 0.036604203 0.12709568 0.07439582 -0.13684599 0.039298218 -0.004132662 -0.10449742
0.027548926 -0.069069564 0.011166149 0.030156394 0.0796246 -0.060512558 -0.086012356 0.081885375
0.029068204 0.028886285 0.04173614 -0.03650536 0.026948135 -0.09658809 0.0042656935 0.010354531
0.06212002 -0.051786587 -0.05727766 0.07132693 -0.057466365 -0.12915602 -0.100673854 -0.05533755
-0.013689121 0.0012436578 0.010934598 -0.07566966 0.06328674 -1.0191491e-05 -0.040441766 0.025368463
-0.05573019 0.069669254 0.040863104 -0.09109653 -0.028560981 -0.087611854 0.03950253 -0.011755622
-0.15796028 -0.109122366 0.061448306 0.02759094 0.11529366 -0.05376953 0.04917005 0.02303917
-0.02585269 -0.047029167 0.035587903 -0.09766938 -0.061916087 -0.055529375 -0.0037347446 -0.08702285
0.043582004 -0.026776494 -0.13290958 -0.00032494275 0.02688501 -0.05016632 0.042372003 -0.038327675
-0.07202012 0.032355685 -0.0876772 0.07723994 -0.065769404 0.042621776 -0.006112733 -0.043608647
0.061167877 -0.0684583 -0.042724483 0.020248327 0.08127483 -0.03555334 -0.04768508 -0.051158026
-0.033532757 -0.03901419 -0.029426409 -0.055453524 0.01229561 -0.013203429 -0.061244134 -0.05313755
0.009304166 -0.003957182 0.024893044 -0.00014907029 -0.05686285 -0.066828676 -0.027813196 -0.014860035
0.036060277 -0.017565396 0.021603644 -0.061150584 0.052709974 0.0066993646 -0.054224886 0.05244055
-0.0028688025 -0.11168447 -0.07580868 0.031799514 0.041288916 0.08193469 0.00096858724 0.07956954
00000000: 35d4 60bd b4e5 aabd 26c3 d1b9 3ed1 923b
00000010: 49e8 aabd 8d1f 9ebd ebf4 c3bd b978 a43d
00000020: d566 49bc 5ecf 53bd ebd1 09bd 868a 91bd
00000030: 5a7a c8bd 1a67 0ebe 79a5 293d 21ff 5e3c
00000040: 2d84 7fbd 2f2c 30bd 3c7d 27bb 3c38 fa3d
00000050: fd20 d23c 8946 bd3d 4a24 78bc 7822 fbbb
00000060: b853 123b 8b85 79bd a357 043d 0c55 5d3c
00000070: 21d1 f53c e399 cd3c 3899 71bd 5391 f4bc
00000080: ee7b d23c 01d0 84bd ed98 dfbd b839 b83c
00000090: a52f d4bc c551 26bd d318 4d3d 4102 f33c
000000a0: 860b ecbc 213f c63d f520 213d 5454 7a3c
000000b0: ad5a d9bc 7db2 3fbd 04af d53d c1d9 dabc
000000c0: 72fc 01bd d6cf 443d f6a9 983c 2225 093d
000000d0: 01de 36bd 522f 51bd 07d0 a03d b2e1 893d
000000e0: ab41 d0bc 3f68 66bd ac03 d53c dc7d 7fbd
000000f0: 2003 883d d1de 63bb 7d18 b23d a976 b43c
00000100: 61fc 74bd 30e3 663d ee12 4bbc a6ea a4bd
00000110: 3922 d8bc a03a aebd d41e 52bd 13e9 a2bd
00000120: 0cc0 143c b939 87bd de1c 1f3c 3088 9d3d
00000130: c138 bebc 1d32 dabd cdfc 5eba f4ee 9f3d
00000140: 7db8 4fbd 0f71 663d 2dc9 a6bb f4ff 703c
00000150: 9770 18bd ec69 fc3d a829 983d 8e46 c43d
00000160: d31b 3cbb 5dde 1b3c 66e1 663d 6fff e4bc
00000170: d1a6 623c 5140 f93c 582d 95bd fef9 06be
00000180: ba98 593d 8dc3 3b3d 758e 5e3d 866a 66bd
00000190: a28a 8d3d 1da4 2c3d 17a8 c03d decd be3d
000001a0: 7f91 9abd dbaa bb3d f28b acbd f2eb 4d3d
000001b0: 46d6 f03c 5983 943d 57ae fcbc 0df7 b03d
000001c0: 063e 69bc 6c5b 7bbd 798b 0a3d 7e8d 913d
000001d0: 3f68 de3d cbe5 1cbd 0d1d 9a3d 8b8e 293d
000001e0: 40b9 3fbd de3a edbd 2b33 d13c e6d1 83bd
000001f0: 64f8 3b3d 1ee2 bebd 49e3 d73d f52b e3bd
00000200: bb3f 613d 29b7 0a3e b6b1 87be 0801 863a
00000210: f904 aa3d b6a4 36be 7ad1 b3bb ec3c 34bc
00000220: d7c3 1e3d 4aee 153d 5f25 023e d65c 983d
00000230: 5b21 0cbe 2bf7 203d 486b 87bb be02 d6bd
00000240: 49ae e13c 5874 8dbd 39f2 363c 8b0a f73c
00000250: 3912 a33d 04dc 77bd 3f27 b0bd 85b3 a73d
00000260: 7120 ee3c eea2 ec3c 84f3 2a3d a586 15bd
00000270: 56c2 dc3c facf c5bd 3bc7 8b3b 0da6 293c
00000280: 9071 7e3d 2c1e 54bd fb9b 6abd da13 923d
00000290: da61 6bbd 7a41 04be 182e cebd a0a9 62bd
000002a0: 5648 60bc 3b02 a33a 0727 333c b2f8 9abd
000002b0: 7a9c 813d 1ffc 2ab7 44a6 25bd 86d1 cf3c
000002c0: 5745 64bd c1ae 8e3d 1260 273d d190 babd
000002d0: b8f8 e9bc d86d b3bd 68cd 213d a79a 40bc
000002e0: 57c0 21be 8c7b dfbd 38b1 7b3d 6506 e23c
000002f0: 151f ec3d 703d 5cbd 8966 493d a4bc bc3c
00000300: 05c9 d3bc a8a1 40bd 9fc4 113d e206 c8bd
00000310: b99b 7dbd c572 63bd 9ec2 74bb 0939 b2bd
00000320: 0b83 323d 615a dbbc 7319 08be 145d aab9
00000330: f43d dc3c 337b 4dbd 448e 2d3d 7bfd 1cbd
00000340: 497f 93bd 6587 043d 1b90 b3bd f92f 9e3d
00000350: 1cb2 86bd 2c94 2e3d 524d c8bb fb9e 32bd
00000360: 2b8b 7a3d dd33 8cbd deff 2ebd d2df a53c
00000370: 6b73 a63d 61a0 11bd 6e51 43bd 148b 51bd
00000380: a559 09bd 58cd 1fbd a70f f1bc 3c23 63bd
00000390: 8773 493c 3253 58bc 21db 7abd c2a6 59bd
000003a0: 8070 183c 40ab 81bb 7fec cb3c c04f 1cb9
000003b0: 05e9 68bd 79dd 88bd 80d8 e3bc 8177 73bc
000003c0: f1b3 133d 4ee5 8fbc 20fa b03c 0979 7abd
000003d0: 6ae6 573d 5886 db3b ea1a 5ebd e7cb 563d
000003e0: 8502 3cbb d4ba e4bd 9541 9bbd 3540 023d
000003f0: 911e 293d 60cd a73d cae8 7d3a 5bf5 a23d

model.1.sub.0.c1.bias f4 [12]
-0.013830522 0.037112627 -0.092793494 0.019411115 0.012821408 0.076569505 -0.06760138 0.108850226
-0.032588642 0.06990981 0.088862844 -0.0024796997
00000000: 6a99 62bc 6903 183d 840a bebd 0f04 9f3c
00000010: e210 523c 79d0 9c3d 9872 8abd deec de3d
00000020: ab7b 05bd e02c 8f3d b9fd b53d 7582 22bb

model.1.sub.0.c2.weight f4 [12, 9, 3, 3]
-0.097860776 -0.04611633 -0.113112316 0.02180207 0.045463134 -0.0018399513 -0.073833905 0.04524019
0.06055571 -0.10827922 0.006447401 -0.01574664 -0.020808285 -0.08912708 -0.039644048 -0.049834408
-0.10381563 0.08161103 0.058584638 -0.062523685 -0.05063133 0.004191745 -0.044622544 0.011137274
0.064966105 0.14484781 -0.046459567 -0.059749708 -0.15539207 -0.07582674 0.015697287 -0.034620464
0.015218753 0.048881747 -0.13175082 -0.16338274 -0.17460586 -0.07931784 0.05667756 -0.047510963
-0.19953462 -0.05429513 -0.23135725 -0.24192452 -0.037826493 -0.098622106 -0.124101706 -0.014731537
-0.043708652 -0.12748897 -0.11302536 -0.07672009 -0.03473308 -0.1173391 -0.13040954 0.061693195
-0.10218742 0.006715807 0.13386838 -0.009133522 -0.07625457 0.042921264 0.10593171 -0.08268747
-0.04828855 0.029680286 0.008695653 0.020085683 0.092987835 0.05410231 -0.05801662 0.005102664
0.19430259 0.18480648 0.20126837 0.195276 0.19811077 0.123690546 0.36520427 0.089896195
-0.013545872 0.047818862 0.0010198823 -0.02979101 0.039005376 -0.075542614 -0.02503372 0.11123017
-0.01625007 -0.00933232 0.04882128 -0.033688672 0.0070588775 -0.1048979 0.060308304 -0.119436786
0.03249723 -0.119113915 -0.12207776 0.10158112 -0.03558719 0.018923068 0.0309734 0.13611531
0.06897173 0.070269644 -0.037114646 -0.029945893 0.08467666 0.04121801 0.025145514 -0.09338694
-0.09348265 0.02276684 -0.10783323 0.054334186 0.06898018 -0.10421146 -0.14791577 0.034878872
-0.106247395 -0.13888511 -0.13502364 -0.07031124 -0.045149438 0.017158553 0.097344026 0.06185741
0.036183417 0.107234895 -0.042986613 -0.017329644 0.11254398 -0.0034392988 0.09289205 0.051051434
0.0644545 -0.0094867805 -0.07217635 0.10169959 0.10895556 -0.061443515 -0.03138426 0.016673252
0.05494761 -0.00203547 -0.039028905 0.09659322 -0.03665506 0.115712345 0.023163633 0.07495406
0.038206987 0.015747257 0.1566754 0.0025853044 0.16842748 0.13012026 0.042852566 0.16139369
0.042697847 0.07271044 -0.027207138 0.030512488 -0.030106338 0.027100716 -0.039399244 0.03766304
0.06615233 -0.105424754 0.083449595 -0.062256172 -0.03251796 0.04358661 0.116819665 0.081599645
-0.034062747 0.03377686 -0.05356477 0.046242427 0.0059283734 0.004052707 -0.11365497 0.06876839
0.117166415 -0.0838077 0.04000757 -0.050406255 -0.04055388 0.110398404 -0.10619865 -0.02861035
0.016430018 0.039905313 -0.058930743 -0.08903857 -0.012025019 -0.14760582 -0.06863465 -0.15037325
-0.059649777 0.009489801 -0.18555877 -0.14633904 -0.15226428 0.005368071 0.001667129 -0.12156255
0.035162963 0.03130852 -0.13334689 -0.0119444365 -0.0013123207 -0.04885658 0.053244982 -0.059435178
-0.006423152 0.06788469 -0.11025288 -0.10578192 0.03316934 0.0054539433 0.007951882 -0.07292474
0.07218086 -0.05837492 -0.026117159 -0.09900985 -0.08737634 0.061110955 -0.035526123 0.106791504
0.13387813 0.054625303 0.03311279 -0.2329376 0.07699785 0.05950597 -0.19123916 0.019797914
-0.11413926 -0.3074636 -0.3753295 -0.056309745 -0.064760715 0.006482149 0.08886808 -0.015937056
-0.010026177 0.1913737 0.08142347 0.03607677 0.017254595 -0.104099564 -0.14189485 0.05975305
00000000: 3b6b c8bd 7ae4 3cbd 6ea7 e7bd 419a b23c
00000010: 8d37 3a3d 852a f1ba 3b36 97bd c74d 393d
00000020: 4409 783d 7fc1 ddbd b844 d33b 19ff 80bc
00000030: 2376 aabc 4288 b6bd cc61 22bd 2a1f 4cbd
00000040: 4a9d d4bd af23 a73d 72f6 6f3d 6b0c 80bd
00000050: cc62 4fbd e85a 893b 21c6 36bd 1d79 363c
00000060: f30c 853d fc52 143e 634c 3ebd 1cbc 74bd
00000070: 191f 1fbe 0d4b 9bbd 9997 803c 30ce 0dbd
00000080: 1458 793c 3a38 483d b0e9 06be ce4d 27be
00000090: e1cb 32be 6471 a2bd bb26 683d db9a 42bd
000000a0: ce52 4cbe 9264 5ebd eae8 6cbe 10bb 77be
000000b0: f4ef 1abd 63fa c9bd 0929 febd 8b5c 71bc
000000c0: d807 33bd 788c 02be d779 e7bd 6c1f 9dbd
000000d0: 4644 0ebd 7b4f f0bd 148a 05be 01b2 7c3d
000000e0: a347 d1bd 4610 dc3b cb14 093e c5a4 15bc
000000f0: 5b2b 9cbd 35ce 2f3d b9f2 d83d 0c58 a9bd
00000100: 37ca 45bd 1224 f33c 3678 0e3c bb8a a43c
00000110: 6870 be3d 629a 5d3d d6a2 6dbd 4034 a73b
00000120: 42f7 463e e93d 3d3e 4c19 4e3e 6ff6 473e
00000130: 8ddd 4a3e 7851 fd3d 0efc ba3e 7f1b b83d
00000140: 81ef 5dbc b6dd 433d 92ad 853a 470c f4bc
00000150: 1ac4 1f3d 16b6 9abd 8413 cdbc a5cc e33d
00000160: de1e 85bc 96e6 18bc d3f8 473d 22fd 09bd
00000170: 284e e73b b6d4 d6bd d705 773d 469b f4bd
00000180: d11b 053d fff1 f3bd e803 fabd c309 d03d
00000190: e0c3 11bd 8d04 9b3c eebb fd3c d061 0b3e
000001a0: 0d41 8d3d 88e9 8f3d 8705 18bd 1751 f5bc
000001b0: f56a ad3d 37d4 283d f7fd cd3c a741 bfbd
000001c0: d573 bfbd 8681 ba3c abd7 dcbd 868d 5e3d
000001d0: 7b45 8d3d d16c d5bd 3b77 17be 26dd 0e3d
000001e0: 3c98 d9bd e637 0ebe a343 0abe 57ff 8fbd
000001f0: 9eee 38bd 1890 8c3c 4e5c c73d 325e 7d3d
00000200: 1035 143d f89d db3d bb12 30bd e6f6 8dbc
00000210: 757d e63d dc65 61bb 303e be3d 4f1b 513d
00000220: b900 843d 716e 1bbc 32d1 93bd e047 d03d
00000230: 1824 df3d 32ac 7bbd c88c 00bd 5896 883c
00000240: bf10 613d 8565 05bb c6dc 1fbd abd2 c53d
00000250: 9e23 16bd 98fa ec3d a9c1 bd3c 8481 993d
00000260: ee7e 1c3d 6400 813c 846f 203e 366e 293b
00000270: 4178 2c3e 3f3e 053e 2c86 2f3d 6344 253e
00000280: f0e3 2e3d 36e9 943d 81e1 debc 53f5 f93c
00000290: 91a1 f6bc 5202 de3c 1a61 21bd 8f44 1a3d
000002a0: df7a 873d efe8 d7bd 9fe7 aa3d 5400 7fbd
000002b0: 8d31 05bd e087 323d 263f ef3d b71d a73d
000002c0: 6185 0bbd 9b59 0a3d bb66 5bbd b368 3d3d
000002d0: cd42 c23b 92cc 843b f0c3 e8bd 71d6 8c3d
000002e0: f2f4 ef3d 5fa3 abbd fade 233d ca76 4ebd
000002f0: d31b 26bd 8f18 e23d ae7e d9bd 4160 eabc
00000300: 3f98 863c c173 233d 5d61 71bd db59 b6bd
00000310: 9604 45bc fb25 17be 5390 8cbd 72fb 19be
00000320: 5353 74bd 1c7b 1b3c 1e03 3ebe e7d9 15be
00000330: 2beb 1bbe a5e6 af3b 9183 da3a c9f5 f8bd
00000340: 0a07 103d 5d3d 003d 168c 08be 99b2 43bc
00000350: 2d02 acba d61d 48bd 6917 5a3d 4d72 73bd
00000360: 4e79 d2bb 2107 8b3d 43cc e1bd 31a4 d8bd
00000370: 93dc 073d feb6 b23b 9c48 023c 9159 95bd
00000380: 8fd3 933d 8a1a 6fbd a7f3 d5bc adc5 cabd
00000390: 5ef2 b2bd 7b4f 7a3d d783 11bd 81b5 da3d
000003a0: 5917 093e c8be 5f3d 47a1 073d 3287 6ebe
000003b0: 0cb1 9d3d 88bc 733d 33d4 43be 3c2f a23c
000003c0: d8c1 e9bd de6b 9dbe 302b c0be 0ca5 66bd
000003d0: 44a1 84bd 3568 d43b 7800 b63d 6e8e 82bc
000003e0: d644 24bc 78f7 433e 59c1 a63d 3cc5 133d
000003f0: 8259 8d3c 2732 d5bd e24c 11be 9dbf 743d

model.1.sub.0.c2.bias f4 [12]
0.07994083 -0.038090706 -0.022792026 -0.048170447 0.001283935 -0.023013318 0.054700408 -0.022555418
-0.018207816 0.08899415 0.025161516 -0.047232937
00000000: 05b8 a33d 0005 1cbd 58b6 babc 604e 45bd
00000010: b649 a83a 6d86 bcbc 890d 603d 24c6 b8bc
00000020: 8f28 95bc 9142 b63d 861f ce3c 5377 41bd

model.1.sub.0.c3.weight f4 [12, 9, 3, 3]
-0.08994586 -0.23058417 0.0026122103 -0.045772683 -0.01871377 0.17844929 -0.009234542 0.07420227
0.14481047 0.04043357 0.050307676 -0.012808 -0.05084284 -0.04897326 -0.07462457 -0.08650976
0.063040756 -0.103017434 0.06713935 0.044694733 -0.049281098 -0.039625596 -0.06422311 -0.1265962
-0.011347717 -0.10056665 -0.019100826 0.012748778 -0.010760774 -0.00046721098 0.03962762 -0.10094715
-0.08235323 0.027576111 -0.014370713 0.01719372 0.07276144 0.004609711 0.008293099 0.060966667
0.026902586 -0.07905 0.04250747 0.07534891 -0.04819002 -0.11332326 -0.03118491 -0.0787235
0.101545766 -0.030050159 -0.059522673 0.06251392 0.040362924 0.03690818 0.08375511 -0.118902184
0.050313853 -0.06524475 0.032787576 -0.045221496 0.0940316 -0.02725994 0.0021752627 -0.108109005
0.06511681 -0.118340306 0.014164277 0.047008164 0.061049245 0.031224633 -0.051847123 0.007499864
0.14038259 0.042742085 0.2807109 -0.11247061 -0.017321637 0.1159304 -0.0060193376 0.04366348
0.22476086 0.0038232245 0.020316344 -0.15003213 0.25510725 0.34784493 0.46661353 -0.3699148
-0.23828363 -0.007464948 -0.082836084 -0.02265483 -0.07009458 0.10747476 -0.012587683 0.057292137
-0.0461537 0.0476409 0.10915166 0.013657236 -0.03831983 -0.053647246 0.092004 0.04604579
-0.003108069 0.08775579 -0.04223957 -0.057584055 0.24427573 -0.044943426 -0.04503409 0.08606169
-0.039871678 -0.017886534 0.08265444 0.10089626 0.015823202 -0.027817229 0.06026662 -0.022851193
0.010835453 0.041083507 0.030968703 -0.039365795 -0.06354612 -0.005463952 0.008903757 -0.027235404
-0.054678556 0.02758809 0.10048203 -0.056552906 0.05215472 -0.117789485 0.0028050686 -0.105415285
0.09305584 -0.08833998 -0.080618 0.07533045 0.092341416 0.078583926 0.0225131 -0.11566829
-0.21301617 0.00918759 -0.07367795 0.070014134 -0.13330649 -0.030450867 0.024317896 0.04742097
0.06012128 -0.012331366 -0.038350467 0.17295645 0.41410035 -0.061138548 0.054872066 0.074024536
0.20458871 0.13295715 0.033507153 0.33810228 -0.03325892 0.34343314 0.46449935 0.24214226
-0.22187509 0.07511472 -0.106339894 -0.10390332 0.017636184 -0.003149211 -0.02772382 -0.112516105
0.076357506 0.04200381 0.060160942 0.09563874 0.120473966 -0.014640393 0.023290763 -0.0316552
-0.06502139 -0.025249356 0.054227315 -0.03738053 0.09794667 -0.073196195 -0.32556182 0.21946616
0.046170607 -0.014626754 0.35902318 0.01614662 0.22084816 -0.07143621 0.09928857 0.0064608348
0.015744949 0.00092522916 -0.03185196 -0.0199971 -0.041314404 0.038305286 0.022599496 -0.06440138
0.058666367 -0.10417355 0.08286168 -0.0763551 0.021680476 0.12517932 -0.06611345 -0.06550038
-0.042256184 -0.022790752 -0.035187673 0.11419451 -0.03853242 0.089674786 -0.0689209 -0.027649468
-0.083729714 -0.121530116 -0.15619697 -0.009114166 0.05208607 -0.12821037 0.004843398 0.1912677
-0.06083459 0.15850136 -0.010776457 -0.07419758 0.24313779 0.048040763 -0.33251858 0.5026145
0.36273342 0.24309747 0.3100087 0.066902846 -0.18540226 -0.25080127 -0.25660464 -0.032883763
0.21737826 -0.01407432 0.22581622 0.21797422 0.1063415 -0.10157832 -0.05629332 0.021692414
00000000: 8935 b8bd 421e 6cbe 9e31 2b3b 237c 3bbd
00000010: 9f4d 99bc 69bb 363e 7a4c 17bc 5cf7 973d
00000020: 3249 143e ac9d 253d 6c0f 4e3d a5d8 51bc
00000030: 9540 50bd 2f98 48bd c4d4 98bd 072c b1bd
00000040: 831b 813d cefa d2bd 5b80 893d d311 373d
00000050: fada 49bd 734e 22bd 6887 83bd 6fa2 01be
00000060: c6eb 39bc e3f5 cdbd 5679 9cbc 40e0 503c
00000070: f54d 30bc fff3 f4b9 9250 223d 61bd cebd
00000080: cfa8 a8bd 4ce7 e13c 2473 6bbc d8d9 8c3c
00000090: f303 953d 0f0d 973b c7df 073c 2fb8 793d
000000a0: d062 dc3c f7e4 a1bd 501c 2e3d 8850 9a3d
000000b0: e662 45bd 0616 e8bd 7f77 ffbc c939 a1bd
000000c0: 3af7 cf3d c02b f6bc 0cce 73bd 4c07 803d
000000d0: 9853 253d 082d 173d cd87 ab3d fd82 f3bd
000000e0: e615 4e3d 0a9f 85bd 444c 063d 2d3a 39bd
000000f0: a493 c03d 3d50 dfbc da8e 0e3b 4168 ddbd
00000100: f65b 853d 675c f2bd 4911 683c a28b 403d
00000110: c60e 7a3d cdca ff3c a65d 54bd 6bc1 f53b
00000120: 74c0 0f3e 5312 2f3d 57b9 8f3e fe56 e6bd
00000130: 1be6 8dbc eb6c ed3d dd3d c5bb 7ad8 323d
00000140: b627 663e 108f 7a3b 766e a63c 06a2 19be
00000150: 6b9d 823e bb18 b23e f8e7 ee3e 7965 bdbe
00000160: a000 74be 869c f4bb f7a5 a9bd 9f96 b9bc
00000170: bf8d 8fbd ba1b dc3d 923c 4ebc 29ab 6a3d
00000180: aa0b 3dbd 1b23 433d e88a df3d 99c2 5f3c
00000190: 41f5 1cbd 37bd 5bbd 986c bc3d 839a 3c3d
000001a0: bfb0 4bbb 4fb9 b33d 6603 2dbd 42dd 6bbd
000001b0: 6b23 7a3e 9916 38bd aa75 38bd 1c41 b03d
000001c0: 7c50 23bd c886 92bc bb46 a93d b3a2 ce3d
000001d0: a99f 813c f5e0 e3bc 22da 763d 6d32 bbbc
000001e0: 2f87 313c 2e47 283d 14b2 fd3c 073e 21bd
000001f0: 7824 82bd f40a b3bb 10e1 113c c81c dfbc
00000200: 9ff6 5fbd 6b00 e23c 86c9 cd3d 05a4 67bd
00000210: 30a0 553d 9d3b f1bd 3ed5 373b f8e3 d7bd
00000220: 0f94 be3d 97eb b4bd 0d1b a5bd da46 9a3d
00000230: 7f1d bd3d 9cf0 a03d 656d b83c 7fe3 ecbd
00000240: e920 5abe 8c87 163c 77e4 96bd 9263 8f3d
00000250: 7f81 08be 1974 f9bc 5336 c73c 7e3c 423d
00000260: bb41 763d 7f09 4abc 6115 1dbd 7f1b 313e
00000270: f604 d43e 6a6c 7abd 88c1 603d 2d9a 973d
00000280: b47f 513e eb25 083e cc3e 093d be1b ad3e
00000290: 813a 08bd 78d6 af3e dcd2 ed3e 24f4 773e
000002a0: 3933 63be bfd5 993d bbc8 d9bd 44cb d4bd
000002b0: c279 903c fe62 4ebb 111d e3bc d86e e6bd
000002c0: 5361 9c3d 300c 2c3d 526b 763d 3ede c33d
000002d0: 0ebb f63d 42de 6fbc 45cc be3c e2a8 01bd
000002e0: ef29 85bd bdd7 cebc 761d 5e3d 541c 19bd
000002f0: 4498 c83d e3e7 95bd 0ab0 a6be bdbb 603e
00000300: 641d 3d3d 0ea5 6fbc e3d1 b73e eb45 843c
00000310: 0526 623e 264d 92bd ce57 cb3d 69b5 d33b
00000320: 8dfb 803c 148b 723a 3377 02bd f5d0 a3bc
00000330: 4b39 29bd 01e6 1c3d 9422 b93c dfe4 83bd
00000340: 254c 703d f158 d5bd 62b3 a93d 1060 9cbd
00000350: 419b b13c 022f 003e 7d66 87bd 1025 86bd
00000360: d214 2dbd acb3 babc f320 10bd d0de e93d
00000370: 2cd4 1dbd 6aa7 b73d 6726 8dbd 2381 e2bc
00000380: 7c7a abbd c8e4 f8bd 19f2 1fbe 9553 15bc
00000390: 3458 553d 9449 03be 5eb5 9e3b aedb 433e
000003a0: b12d 79bd 2e4e 223e bd8f 30bc e7f4 97bd
000003b0: 1df9 783e 64c6 443d e03f aabe 58ab 003f
000003c0: 32b8 b93e 8bee 783e 76b9 9e3e 5c04 893d
000003d0: 17da 3dbe 0669 80be af61 83be 20b1 06bd
000003e0: 6898 5e3e fa97 66bc 5e3c 673e a234 5f3e
000003f0: 93c9 d93d 4b08 d0bd d393 66bd 4ab4 b13c

model.1.sub.0.c3.bias f4 [12]
-0.047827408 -0.093716934 -0.044870913 -0.08539993 -0.058936387 -0.075500466 -0.037662756 0.08674384
-0.10300096 0.08381001 -0.0010854003 -0.070632726
00000000: ace6 43bd aaee bfbd 90ca 37bd 29e6 aebd
00000010: 4867 71bd fd9f 9abd 4344 1abd c1a6 b13d
00000020: 2bf2 d2bd 95a4 ab3d fe43 8eba e4a7 90bd

model.1.sub.0.c4.weight f4 [3, 9, 3, 3]
0.19797619 0.21501763 -0.006705909 0.02460486 0.051710967 0.020588268 0.030745357 0.06720482
0.042558387 -0.036612276 -0.031333923 0.02225885 -0.0074326997 0.13513362 0.02607494 0.028668938
0.06422002 0.076802656 0.24258737 -0.115262285 0.10801166 -0.11735991 -0.43549985 -0.30035377
0.06676919 -0.06890887 0.01838004 -0.061769385 -0.15770333 -0.13921243 0.1596355 0.0064705545
0.115988545 -0.01794685 0.08533716 -0.05077703 -0.054570604 0.15544996 0.1431575 -0.02619143
-0.0027377885 0.030363051 0.0018982015 0.09486368 -0.05161027 0.02932304 0.094161175 0.064907886
-0.06543295 0.090208665 -0.031110704 -0.008289119 -0.10155455 0.033542696 -0.1613306 -0.0057821665
-0.11921051 -0.14768882 -0.07149281 0.06384329 0.033086944 -0.095851265 0.058215164 -0.13293833
-0.13462867 -0.16372518 -0.13757756 0.054632455 -0.08068188 0.045799885 -0.0636799 -0.14981732
-0.08009907 0.12730806 0.1482521 0.0017399116 0.049643304 0.046045177 -0.08333641 0.056306764
0.028750869 -0.05776789 0.03635239 -0.04791325 0.0728719 -0.10527004 0.043633733 0.0037237415
0.01605631 -0.018086283 0.031546596 0.027244328 -0.08262432 -0.05038319 0.043031413 0.15390302
0.0964036 -0.06953687 0.08708818 -0.16418552 -0.11362453 0.2722703 0.13890502 -0.07416033
-0.11678444 0.079624236 -0.009594877 -0.17831366 0.13736644 -0.060973458 -0.006810189 0.012163141
-0.0020149115 -0.0165891 -0.10181481 0.033510506 0.0724746 -0.051404115 -0.08182427 -0.038885288
-0.08740234 -0.13666248 -0.09748908 0.07470138 -0.05431617 0.058142927 0.062172096 -0.013565179
-0.04706866 0.07005611 -0.048006587 -0.087770164 0.05682762 -0.048229698 0.04561723 0.03781672
-0.08763432 -0.040440872 0.033552762 0.011559578 0.024090774 -0.0259557 -0.05598173 -0.05389503
-0.045233283 -0.14047226 -0.10646275 0.14438196 0.09438553 0.08589288 0.07347732 -0.09448968
-0.027793616 -0.009918255 -0.055735387 0.074326366 0.15477557 -0.17570782 -0.022159021 -0.08096219
0.040451143 -0.04743944 -0.23190218 0.0309672 0.0886168 -0.035114635 -0.07296777 0.043513235
0.0045347903 -0.034434248 -0.019390518 0.114896834 0.122584365 0.14421585 -0.029303795 0.049147386
-0.05794895 0.010428947 0.03714036 -0.015317527 -0.10784454 -0.21262391 -0.15308745 0.085133
0.42440215 0.09753453 0.12474057 0.09467475 -0.03963344 0.06018405 0.18660977 0.011894361
-0.020966256 -0.13833222 -0.07557403 0.017813079 -0.021996832 0.13794436 -0.018759504 0.13280344
0.10090616 -0.09496969 -0.01206275 -0.16976228 0.023216443 -0.08697747 -0.08195863 0.08132068
0.10090398 0.051230315 -0.015218875 0.06288267 -0.07423338 0.06748537 -0.03109536 0.05530924
0.08764899 -0.035460483 -0.032351643 -0.091239884 0.13155779 0.051475946 -0.08368481 -0.025171235
0.08480357 -0.115760386 -0.048795152 -0.09965203 0.022791917 -0.019226173 -0.0046558096 -0.19290377
-0.22669216 -0.21116188 -0.035154752 -0.094503 0.088866495 -0.057013154 -0.012544296 -0.05990165
-0.027721943 -0.20591599 -0.085165314
00000000: 45ba 4a3e 952d 5c3e 3ebd dbbb 2290 c93c
00000010: e1ce 533d baa8 a83c b0dd fb3c aea2 893d
00000020: b451 2e3d c1f6 15bd 0058 00bd 3158 b63c
00000030: 018e f3bb 7860 0a3e 1d9b d53c 1fdb ea3c
00000040: c985 833d b64a 9d3d d368 783e a20e ecbd
00000050: 3835 dd3d 645a f0bd d6f9 debe f8c7 99be
00000060: 49be 883d 1820 8dbd bd91 963c e501 7dbd
00000070: fb7c 21be b48d 0ebe 7d77 233e f206 d43b
00000080: 678b ed3d 4605 93bc 40c5 ae3d 93fb 4fbd
00000090: 6d85 5fbd 462e 1f3e e197 123e 698f d6bc
000000a0: 786c 33bb efbb f83c 13cd f83a e447 c23d
000000b0: 4a65 53bd df36 f03c 93d7 c03d 6dee 843d
000000c0: b601 86bd 52bf b83d e0db febc 16cf 07bc
000000d0: d5fb cfbd 1164 093d d933 25be 5478 bdbb
000000e0: a424 f4bd bd3b 17be d36a 92bd 45c0 823d
000000f0: 2d86 073d ab4d c4bd 0673 6e3d fc20 08be
00000100: 19dc 09be 93a7 27be 22e1 0cbe 48c6 5f3d
00000110: 8b3c a5bd a998 3b3d 9b6a 82bd b669 19be
00000120: fb0a a4bd 0b5d 023e 66cf 173e bf0d e43a
00000130: c756 4b3d de99 3c3d 48ac aabd eca1 663d
00000140: f186 eb3c 069e 6cbd 3ee6 143d af40 44bd
00000150: dd3d 953d d297 d7bd 49b9 323d 040a 743b
00000160: 8688 833c af29 94bc 0137 013d 7f2f df3c
00000170: f136 a9bd 9b5e 4ebd b541 303d c198 1d3e
00000180: 406f c53d 5969 8ebd 4a5b b23d 4020 28be
00000190: fab3 e8bd 0367 8b3e 1e3d 0e3e 5fe1 97bd
000001a0: ae2c efbd 0812 a33d d533 1dbc db97 36be
000001b0: caa9 0c3e 4ebf 79bd 0228 dfbb e947 473c
000001c0: 9b0c 04bb dde5 87bc 4884 d0bd 5042 093d
000001d0: 906d 943d 1f8d 52bd 7c93 a7bd 2e46 1fbd
000001e0: ffff b2bd 40f1 0bbe 5ba8 c7bd 0afd 983d
000001f0: a27a 5ebd 4727 6e3d 2ba8 7e3d 7c40 5ebc
00000200: 11cb 40bd 9479 8f3d 8ea2 44bd d8c0 b3bd
00000210: 14c4 683d 818c 45bd 22d9 3a3d b4e5 1a3d
00000220: 9f79 b3bd 54a5 25bd 9f6e 093d 6264 3d3c
00000230: 045a c53c 0ca1 d4bc 194d 65bd 09c1 5cbd
00000240: 8946 39bd f6d7 0fbe 2409 dabd ddd8 133e
00000250: 334d c13d 9be8 af3d 477b 963d ce83 c1bd
00000260: 70af e3bc 2d80 22bc ca4a 64bd 6c38 983d
00000270: 7d7d 1e3e c0ec 33be d686 b5bc 81cf a5bd
00000280: 19b0 253d dc4f 42bd c477 6dbe edae fd3c
00000290: ba7c b53d 5dd4 0fbd 2070 95bd ef3a 323d
000002a0: 9498 943b ed0a 0dbd ddd8 9ebc 084f eb3d
000002b0: 830d fb3d 52ad 133e 830e f0bc c54e 493d
000002c0: e15b 6dbd 2dde 2a3c 7d20 183d 5df6 7abc
000002d0: 99dd dcbd 15ba 59be f5c2 1cbe 365a ae3d
000002e0: 3d4b d93e 2fc0 c73d fc77 ff3d d6e4 c13d
000002f0: ad56 22bd 8d83 763d a216 3f3e 91e0 423c
00000300: 6dc1 abbc f6a6 0dbe 8fc6 9abd bcec 913c
00000310: b332 b4bc 4941 0d3e 88ad 99bc a0fd 073e
00000320: e4a7 ce3d 787f c2bd d7a2 45bc 2ad6 2dbe
00000330: 6930 be3c 3e21 b2bd edd9 a7bd 758b a63d
00000340: bfa6 ce3d e1d6 513d 9758 79bc a1c8 803d
00000350: ac07 98bd c535 8a3d b2bb febc f18b 623d
00000360: 5081 b33d 033f 11bd 2883 04bd fadb babd
00000370: 16b7 063e 71d8 523d f162 abbd e833 cebc
00000380: 7ead ad3d c813 edbd 6ddd 47bd 5d16 ccbd
00000390: 1db6 ba3c 3580 9dbc c38f 98bb 9188 45be
000003a0: fd21 68be d23a 58be 6efe 0fbd ca8a c1bd
000003b0: a3ff b53d a086 69bd 9786 4dbc 6f5b 75bd
000003c0: 2119 e3bc a4db 52be 276b aebd

model.1.sub.0.c4.bias f4 [3]
0.047967236 -0.10737239 0.0017644822
00000000: 4b79 443d 0ee6 dbbd 3346 e73a

model.1.sub.0.c5.weight f4 [12, 12, 1, 1]
0.0644077 -0.044143856 0.19740428 0.07721457 0.21822144 -0.16007957 -0.257791 -0.17134707
0.3510942 0.2074729 -0.05080854 -0.10003456 -0.120689295 0.0919573 -0.023963546 -0.06481853
-0.13005608 -0.19365393 0.042609647 -0.030256245 0.0054991795 0.17160444 0.1378477 0.38453972
0.0667277 -0.08896684 0.10870713 -0.096220545 0.11378811 -0.12374602 -0.11745776 -0.11014925
0.15052502 -0.06867821 -0.10314431 -0.39897922 -0.2558754 0.035630446 -0.044679966 -0.0102728745
0.3033138 0.057600047 0.20991477 -0.027370268 0.027135458 0.084207885 0.07018368 -0.30322084
0.009489077 -0.23295835 -0.022572303 0.21311828 0.29456756 0.32757893 -0.23749132 -0.038653184
0.2780722 0.19894172 -0.14874788 -0.18354604 0.11766552 -0.12698202 0.2792984 -0.32729298
0.10143977 -0.09845389 -0.22648306 -0.57978517 -0.16061345 -0.3648789 -0.13512935 0.3450208
0.17707343 0.23471357 -0.14218362 0.22620527 0.04280204 -0.014411672 0.16260877 -0.10571489
-0.20425223 -0.2930946 -0.12551153 0.16790895 -0.041445468 -0.18802384 -0.082725264 -0.30011547
0.16600908 -0.05905221 0.19635542 0.10470549 0.05028182 0.3672942 -0.08768633 -0.56199545
0.21735932 -0.099196926 0.20365392 0.38273588 -0.084184036 -0.10989083 0.11417361 0.21855593
0.3316663 0.11648869 0.031328224 0.069254726 0.06571167 -0.26699904 -0.06415495 -0.032293543
0.10881987 -0.2991066 -0.290437 -0.25024348 0.04621419 0.17386076 -0.23984538 0.048018098
0.032612156 0.30773157 -0.17835449 -0.0872188 0.07624506 -0.3226277 0.19993846 0.17482172
-0.0063106245 -0.030256802 0.25175858 0.20321946 0.02844126 -0.1308088 -0.21563938 -0.046634458
-0.20628093 -0.01621706 0.27323592 0.109919615 -0.10853963 -0.23535462 0.13036114 -0.25469223
00000000: 2fe8 833d 30d0 34bd 5924 4a3e ac22 9e3d
00000010: 7175 5f3e e6eb 23be 2ffd 83be 9b75 2fbe
00000020: 9ec2 b33e c773 543e 9e1c 50bd ebde ccbd
00000030: f32b f7bd 1c54 bc3d 334f c4bc 94bf 84bd
00000040: 6c2d 05be 374d 46be 7487 2e3d f2db f7bc
00000050: 7632 b43b 13b9 2f3e f327 0d3e 64e2 c43e
00000060: 88a8 883d 3f34 b6bd d8a1 de3d 470f c5bd
00000070: be09 e93d 8e6e fdbd b28d f0bd ee95 e1bd
00000080: 3b23 1a3e 29a7 8cbd 533d d3bd 0147 ccbe
00000090: 1a02 83be 3bf1 113d 5702 37bd 8f4f 28bc
000000a0: f24b 9b3e 07ee 6b3d e6f3 563e 9d37 e0bc
000000b0: 2e4b de3c 2f75 ac3d 76bc 8f3d c33f 9bbe
000000c0: 1378 1b3c a28c 6ebe 8de9 b8bc ae3b 5a3e
000000d0: 8fd1 963e 6db8 a73e ed30 73be cd52 1ebd
000000e0: 7b5f 8e3e 61b7 4b3e 5d51 18be 7ef3 3bbe
000000f0: 9ffa f03d 9307 02be 3300 8f3e f292 a7be
00000100: a7bf cf3d 31a2 c9bd 2deb 67be cd6c 14bf
00000110: da77 24be 68d1 babe 595f 0abe 91a6 b03e
00000120: bd52 353e c158 703e 9598 11be 5ba2 673e
00000130: 3151 2f3d ef1e 6cbc ea82 263e 0c81 d8bd
00000140: 7f27 51be 7f10 96be 1886 00be 53f0 2b3e
00000150: b9c2 29bd 5289 40be dd6b a9bd bca8 99be
00000160: 49fe 293e bbe0 71bd 6511 493e d56f d63d
00000170: 4ff4 4d3d fc0d bc3e e494 b3bd efde 0fbf
00000180: 7193 5e3e c227 cbbd a78a 503e f5f5 c33e
00000190: ae68 acbd 720e e1bd dbd3 e93d 20cd 5f3e
000001a0: 2ad0 a93e 9f91 ee3d 0652 003d 6cd5 8d3d
000001b0: d793 863d 19b4 88be ac63 83bd 3c46 04bd
000001c0: f4dc de3d 8024 99be 29b4 94be ea1f 80be
000001d0: 174b 3d3d 8e08 323e 079a 75be a0ae 443d
000001e0: 5394 053d fe8e 9d3e 8fa2 36be c59f b2bd
000001f0: 5f26 9c3d 752f a5be abbc 4c3e 7704 333e
00000200: 5bc9 cebb 1ddd f7bc 80e6 803e c318 503e
00000210: a5fd e83c bef2 05be 92d0 5cbe c603 3fbd
00000220: 4f3b 53be a4d9 84bc 94e5 8b3e 891d e13d
00000230: 074a debd cd00 71be 647d 053e 0567 82be

model.1.sub.0.c5.bias f4 [12]
-0.22633189 -0.031284545 0.16001604 -0.16008933 -0.057394054 -0.15028226 0.18050644 -0.13700025
-0.052121025 0.13473256 -0.117811844 0.2722701
00000000: 8cc3 67be 3924 00bd 3fdb 233e 75ee 23be
00000010: 0716 6bbd 98e3 19be aed6 383e cb49 0cbe
00000020: db7c 55bd 55f7 093e 5647 f1bd fd66 8b3e

model.1.sub.1.c1.weight f4 [12, 12, 3, 3]
-0.03652199 -0.006707557 0.014903878 -0.024067508 -0.097420506 -0.07046979 -0.08756658 0.053047195
0.013300577 -0.042289093 0.05323339 0.015262633 -0.056607675 0.079171546 -0.05722752 -0.039469186
0.07553282 0.073702954 0.035390045 0.044885173 -0.06394674 -0.10512369 0.008358297 0.029819869
0.07819795 -0.03432093 -0.030818017 0.006491837 0.08529705 -0.0070965425 0.08735802 -0.039682597
0.019374523 -0.07563502 -0.0063023176 0.06997961 -0.08547965 0.09039284 0.059377998 0.084324375
-0.027718194 0.06974221 0.025025725 -0.075605065 0.093600154 -0.08075952 0.10613944 0.055792183
0.058978785 0.030818991 -0.08275294 0.05147802 -0.057453007 -0.0053031533 -0.023038622 -0.0565982
-0.015125833 0.07286955 0.047818843 -0.047057968 0.07720589 0.057713058 0.044392154 0.013857948
-0.052658487 -0.09341834 0.024376856 0.0903025 -0.0973714 0.08414799 0.027570233 0.042343777
0.02291541 0.059163652 -0.04094373 -0.014383579 -0.0415829 -0.063988276 0.015861409 0.004655312
0.05131101 -0.0983374 0.06831768 -0.07335441 -0.115730904 0.07645245 -0.02276314 0.0754604
-0.061035804 0.06580297 0.0013396116 -0.04205255 0.05656139 0.012608452 -0.053007096 -0.014530989
0.039622657 0.07639678 -0.059927836 -0.07804446 0.050559223 0.05850062 -0.016230252 -0.04870591
0.034317475 0.06723596 -0.055465877 0.028144851 0.040235303 0.018564736 0.11234654 -0.068424635
0.115705594 0.02417961 0.023310564 0.082549825 -0.0014148427 0.08204121 -0.078246705 -0.011715241
-0.02803629 0.0697075 0.09298602 0.045474596 0.02466903 -0.0844975 0.020406613 -0.06415273
0.04884716 0.046658944 -0.0146343 -0.022490857 -0.010511666 -0.033593986 -0.024464235 -0.06327302
0.053646956 0.030806765 -0.10739369 -0.03884932 -0.011960693 -0.026951432 0.0003184611 -0.015797716
-0.033129193 0.10911758 -0.03953354 -0.01970552 0.03187389 0.04325901 0.063173525 0.058709625
-0.05050717 -0.10996486 0.040364943 -0.08272464 -0.060558856 0.05967046 0.08962766 0.06274126
-0.016294893 0.040388666 -0.0062769284 -0.05416977 -0.004233275 0.05084092 0.17309573 0.02793689
0.026571207 0.05940958 0.0019406654 0.054014374 -0.02699329 0.057277486 -0.08817595 0.0047718594
0.009733739 -0.010670322 0.109680645 -0.07449623 -0.0065540173 0.1278413 0.010019891 0.04769165
0.14151715 0.09961956 -0.014792407 -0.093212456 -0.13792315 -0.044745393 -0.11319882 0.005638041
-0.04787605 -0.07937252 -0.01379148 -0.043321054 0.045975152 -0.050534822 0.08533645 -0.084648915
0.093242854 0.015919933 0.05552574 0.045367602 -0.095979445 -0.11947448 -0.010281557 -0.044765115
-0.04983871 -0.0562401 -0.0968117 0.010219728 -0.1038805 -0.09148344 -0.006124064 0.0022400324
-0.021735221 -0.08637545 0.0696667 0.08023124 -0.04695125 0.09233273 -0.01565371 0.08737598
0.053813 -0.08019611 0.012463214 -0.06518881 -0.017439377 0.00949998 -0.076802954 0.029109173
0.06465117 -0.012022445 0.055710856 -0.08552051 0.02581735 -0.04193619 0.0110263415 -0.022014698
-0.030245863 -0.022531824 -0.09058471 -0.04814643 -0.05537217 0.08477822 -0.07375668 -0.020138206
-0.050509937 -0.06690775 0.022158096 -0.07812978 0.06610237 -0.023687357 0.062302556 0.08726079
00000000: 1598 15bd 11cb dbbb 652f 743c 3929 c5bc
00000010: 6784 c7bd 7752 90bd 1b56 b3bd 0448 593d
00000020: aaea 593c 5437 2dbd 410b 5a3d 1f10 7a3c
00000030: 73dd 67bd b124 a23d 6767 6abd 71aa 21bd
00000040: f3b0 9a3d 93f1 963d 27f5 103d 84d9 373d
00000050: 82f6 82bd 174b d7bd 3df1 083c cc48 f43c
00000060: 3f26 a03d 1a94 0cbd 1176 fcbc 7ab9 d43b
00000070: 38b0 ae3d 1d8a e8bb c3e8 b23d 388a 22bd
00000080: 52b7 9e3c 89e6 9abd ac83 cebb 7851 8f3d
00000090: f40f afbd e21f b93d 5836 733d 42b2 ac3d
000000a0: 4411 e3bc 01d5 8e3d c002 cd3c d4d6 9abd
000000b0: 70b1 bf3d 3f65 a5bd a25f d93d 5886 643d
000000c0: bd93 713d 1c78 fc3c 607a a9bd 9eda 523d
000000d0: d853 6bbd 13c6 adbb 7ebb bcbc 84d3 67bd
000000e0: 58d2 77bc a13c 953d b1dd 433d dbbf 40bd
000000f0: 1f1e 9e3d 8764 6c3d 8cd4 353d 720c 633c
00000100: 6db0 57bd 1d52 bfbd f9b1 c73c 84f0 b83d
00000110: a86a c7bd c855 ac3d f8da e13c ab70 2d3d
00000120: 19b9 bb3c 9655 723d 9db4 27bd 1aa9 6bbc
00000130: d552 2abd 490c 83bd c9ef 813c 968b 983b
00000140: 7e2b 523d 1e65 c9bd 24ea 8b3d d63a 96bd
00000150: 5304 edbd 1a93 9c3d c479 babc fb8a 9a3d
00000160: ae00 7abd b5c3 863d e895 af3a 4b3f 2cbd
00000170: ebac 673d ae93 4e3c f81d 59bd 6313 6ebc
00000180: 5e4b 223d ea75 9c3d e476 75bd c6d5 9fbd
00000190: 3017 4f3d 599e 6f3d 4ef5 84bc d97f 47bd
000001a0: 7b90 0c3d 02b3 893d 3030 63bd 0890 e63c
000001b0: c6cd 243d 1315 983c f115 e63d 3722 8cbd
000001c0: 0ef7 ec3d 5114 c63c ccf5 be3c e20f a93d
000001d0: 3e72 b9ba 3905 a83d cf3f a0bd 48f1 3fbc
000001e0: 5dac e5bc cec2 8e3d 746f be3d 9243 3a3d
000001f0: b516 ca3c 060d adbd c52b a73c 8262 83bd
00000200: f613 483d 731d 3f3d b4c4 6fbc bf3e b8bc
00000210: 1f39 2cbc d999 09bd 3869 c8bc 4995 81bd
00000220: e9bc 5b3d 785e fc3c 39f1 dbbd 7720 1fbd
00000230: c8f6 43bc 40c9 dcbc 20f7 a639 366a 81bc
00000240: 7ab2 07bd 0a79 df3d eced 21bd 786d a1bc
00000250: 328e 023d 5c30 313d 1f61 813d 8179 703d
00000260: 9be0 4ebd 4235 e1bd b655 253d 896b a9bd
00000270: 900c 78bd 0369 743d b58e b73d 7d7e 803d
00000280: de7c 85bc 966e 253d b1ae cdbb 1fe1 5dbd
00000290: 49b7 8abb 923e 503d 0240 313e e8db e43c
000002a0: dcab d93c 7657 733d ed5d fe3a 2d3e 5d3d
000002b0: 0821 ddbc cc9b 6a3d 9895 b4bd 425d 9c3b
000002c0: 437a 1f3c 93d2 2ebc 3fa0 e03d 7b91 98bd
000002d0: 15c3 d6bb d4e8 023e 782a 243c 5258 433d
000002e0: dfe9 103e 5705 cc3d da5b 72bc 2ce6 bebd
000002f0: ba3b 0dbe f246 37bd c8d4 e7bd 51bf b83b
00000300: ad19 44bd 0f8e a2bd a9f5 61bc 6b71 31bd
00000310: 7150 3c3d 9afd 4ebd e0c4 ae3d 695c adbd
00000320: 1cf6 be3d 856a 823c f56e 633d 61d3 393d
00000330: df90 c4bd 09af f4bd fa73 28bc a05b 37bd
00000340: ad23 4cbd 055c 66bd 3645 c6bd a570 273c
00000350: 4dbf d4bd ab5b bbbd 5fac c8bb 82cd 123b
00000360: 100e b2bc 9de5 b0bd 6aad 8e3d 4750 a43d
00000370: f44f 40bd f118 bd3d 363c 80bc 2ef2 b23d
00000380: 056b 5c3d dc3d a4bd 8232 4c3c b681 85bd
00000390: 06dd 8ebc cea5 1b3c de4a 9dbd 5c76 ee3c
000003a0: d567 843d caf9 44bc 1131 643d 6125 afbd
000003b0: e87e d33c 48c5 2bbd d4a7 343c 2b58 b4bc
000003c0: 2cc6 f7bc a994 b8bc 7a84 b9bd 3135 45bd
000003d0: eecd 62bd 34a0 ad3d be0d 97bd e1f8 a4bc
000003e0: 82e3 4ebd ee06 89bd e584 b53c 8202 a0bd
000003f0: ae60 873d fd0b c2bc f730 7f3d c9b5 b23d

model.1.sub.1.c1.bias f4 [12]
0.016252032 0.047667027 0.046472937 0.08597977 -0.06788349 -0.06325279 0.09601124 0.08091708
0.018951824 0.07782618 0.09644179 0.06997184
00000000: fb22 853c 803e 433d 685a 3e3d 2916 b03d
00000010: 8006 8bbd ae8a 81bd 8aa1 c43d dbb7 a53d
00000020: db40 9b3c 5563 9f3d 4683 c53d 654d 8f3d

model.1.sub.1.c2.weight f4 [12, 9, 3, 3]
-0.044687614 -0.036267225 -0.056826983 -0.053559583 0.0936586 -0.0047138217 -0.06421322 0.10039587
0.051478714 0.014569563 -0.05610226 0.059042174 -0.096329525 0.050041173 -0.020886924 -0.038846865
-0.10413076 0.0026640592 -0.05955708 -0.048697196 0.07031798 -0.07640142 0.105166614 0.09878784
0.074348025 0.014148251 -0.07684226 -0.033387683 -0.044357754 -0.010010272 -0.10082398 -0.04841095
-0.014280075 -0.006925597 -0.031352963 0.02033357 -0.05407856 -0.07062895 -0.078834884 0.1099191
0.07583378 -0.08738261 -0.07445051 0.015903128 -0.04402074 0.036882862 -0.032450385 0.018784119
-0.02598614 -0.07624459 0.0016011252 0.10443665 0.092001714 -0.068779185 0.0021062652 0.084014595
0.0021162406 -0.036622204 0.0725599 -0.01240525 -0.04893815 0.07508554 0.024475798 -0.14085025
-0.050092064 0.11483093 -0.02856254 0.15768227 -0.051891558 -0.124204785 0.34340563 0.010321815
0.09630394 0.062445514 0.043258365 -0.021937056 -0.0029166967 0.07966545 0.0264146 0.10030614
-0.058910895 -0.04100115 0.018801654 0.064834565 0.04857082 0.09600858 -0.039420318 0.013411961
0.041072153 -0.032237705 0.09148973 0.11543317 0.08898737 0.07534019 0.11040681 -0.049816296
0.020366278 0.12388142 -0.011411664 0.026141819 -0.028552862 -0.016716339 0.01320449 -0.015115824
0.007139379 0.10955751 0.011556853 -0.03927448 0.13739724 0.0028972356 0.05899082 0.04291161
0.0783119 0.08675321 0.0890748 0.05305426 0.063976265 -0.011799863 -0.025023244 0.034651756
-0.09471369 0.0014588431 -0.07885829 0.02370193 0.09944373 -0.05200581 -0.10345623 0.07936433
-0.07149294 0.06444934 0.0643823 -0.048296105 -0.009615798 -0.06400866 0.07434324 -0.05481429
0.015444339 -0.09730314 0.099972084 0.057671767 0.083080515 -0.038071137 0.036736496 -0.09758898
-0.22771063 -0.0030480304 -0.18530999 0.23928322 0.3508691 -0.20194736 -0.15956205 0.197514
-0.03274603 0.0153318895 0.010223233 0.057840187 0.034781985 0.00974345 -0.060154263 -0.11010399
-0.051226076 -0.045984376 0.042567763 0.006964075 0.00964749 -0.060426928 -0.12175546 0.030551191
0.070579596 0.07871518 0.10567548 -0.105155684 0.03836399 0.08941335 -0.050424512 0.0656959
0.061215915 0.025472451 -0.10425461 0.049828917 0.09860077 -0.010582221 0.054657776 0.090881534
-0.07661765 -0.09426886 0.042311445 -0.0063652257 -0.041494813 -0.10421436 -0.06370373 0.031483416
-0.02862167 -0.07780798 0.0027365033 0.0034289788 -0.09083123 0.05723063 0.11960401 0.08804503
-0.11418785 -0.054395862 -0.07367474 0.086475976 -0.027305936 0.1152735 -0.025711617 0.05701516
0.08737508 -0.04328419 0.059727333 0.05688657 0.039388083 -0.038414344 -0.07991124 0.031361796
-0.14425707 -0.058641564 0.010444782 0.03599158 0.067992225 -0.094657935 -0.09243938 -0.04879433
-0.03135728 0.00033201775 -0.036129467 -0.03539334 -0.32593346 -0.049276263 0.3440433 -0.25887468
-0.00399767 -0.12886241 -0.059240825 0.11054949 -0.047336716 -0.06976327 0.13119304 0.04648851
0.11158457 0.11988463 0.13302001 0.13221434 0.086380616 -0.044592857 -0.0047322134 0.0062632486
0.014550496 0.13557285 0.06838427 -0.092477694 0.048730128 0.026542574 0.0704763 -0.031747613
00000000: 5c0a 37bd f18c 14bd 69c3 68bd 4b61 5bbd
00000010: 14d0 bf3d 6776 9abb 3882 83bd 5a9c cd3d
00000020: 58db 523d 2db5 6e3c 7ccb 65bd 35d6 713d
00000030: 6a48 c5bd f9f7 4c3d 0e1b abbc e41d 1fbd
00000040: 8242 d5bd 7f97 2e3b 20f2 73bd b676 47bd
00000050: e002 903d 5978 9cbd 9861 d73d 4751 ca3d
00000060: c743 983d 11ce 673c 7a5f 9dbd 86c1 08bd
00000070: 7ab0 35bd 2002 24bc ce7c cebd 8f4a 46bd
00000080: faf6 69bc 1ef0 e2bb f76b 00bd 9692 a63c
00000090: 7b81 5dbd e9a5 90bd 2f74 a1bd 441d e13d
000000a0: be4e 9b3d a7f5 b2bd 8279 98bd 4747 823c
000000b0: 174f 34bd 7c12 173d b2ea 04bd 27e1 993c
000000c0: e3e0 d4bc 2026 9cbd d9dc d13a e2e2 d53d
000000d0: 656b bc3d 1adc 8cbd 4409 0a3b d80f ac3d
000000e0: a0b0 0a3b 2a01 16bd 499a 943d 643f 4bbc
000000f0: 5f73 48bd 73c6 993d 7881 c83c 0c3b 10be
00000100: 562d 4dbd 7b2c eb3d fdfb e9bc 7677 213e
00000110: 3e8c 54bd 145f febd ddd2 af3e d41c 293c
00000120: 003b c53d dec6 7f3d af2f 313d 57b5 b3bc
00000130: 0d26 3fbb a427 a33d 6e63 d83c 4e6d cd3d
00000140: 8d4c 71bd d2f0 27bd ed05 9a3c fcc7 843d
00000150: 32f2 463d 25a0 c43d 3377 21bd d7bd 5b3c
00000160: 463b 283d af0b 04bd f85e bb3d 3a68 ec3d
00000170: 033f b63d f54b 9a3d f71c e23d 2c0c 4cbd
00000180: 2ed7 a63c 8bb5 fd3d fdf7 3abc 5e27 d63c
00000190: b1e7 e9bc b4f0 88bc a557 583c 5ca8 77bc
000001a0: 74f1 e93b b05f e03d f458 3d3c 47de 20bd
000001b0: ddb1 0c3e 8cdf 3d3b 5ca0 713d 16c4 2f3d
000001c0: fd61 a03d abab b13d d96c b63d 6c4f 593d
000001d0: fd05 833d 3654 41bc 8cfd ccbc 00ef 0d3d
000001e0: 40f9 c1bd a736 bf3a 7580 a1bd 8d2a c23c
000001f0: 28a9 cb3d 0b04 55bd dce0 d3bd c489 a23d
00000200: e46a 92bd 04fe 833d deda 833d 23d2 45bd
00000210: 948b 1dbc f916 83bd 4541 983d f384 60bd
00000220: 410a 7d3c de46 c7bd 2abe cc3d 3b39 6c3d
00000230: 1e26 aa3d 7bf0 1bbd 0279 163d bbdc c7bd
00000240: fa2c 69be 77c1 47bb e7c1 3dbe a906 753e
00000250: 1da5 b33e 4acb 4ebe 3c64 23be 1c41 4a3e
00000260: b320 06bd 9b32 7b3c 597f 273c d5e9 6c3d
00000270: 8e77 0e3d fea2 1f3c 5164 76bd 337e e1bd
00000280: 6fd2 51bd 1d5a 3cbd 895b 2e3d e532 e43b
00000290: 8210 1e3c 3a82 77bd ed5a f9bd 7e46 fa3c
000002a0: 098c 903d 6d35 a13d 636c d83d dd5b d7bd
000002b0: 8f23 1d3d 591e b73d ef89 4ebd 928b 863d
000002c0: 8abd 7a3d 9aab d03c 7183 d5bd 6819 4c3d
000002d0: 33ef c93d 0d61 2dbc d5e0 5f3d 1920 ba3d
000002e0: b7e9 9cbd 0810 c1bd c44e 2d3d 6293 d0bb
000002f0: 77f6 29bd 576e d5bd 1a77 82bd c1f4 003d
00000300: fe77 eabc ca59 9fbd e856 333b b8b8 603b
00000310: b905 babd aa6a 6a3d f2f2 f43d f450 b43d
00000320: 52db e9bd 32ce 5ebd c8e2 96bd 511a b13d
00000330: b3b0 dfbc 8314 ec3d 2ba1 d2bc ba88 693d
00000340: b5f1 b23d c34a 31bd a6a4 743d e401 693d
00000350: 6655 213d 5c58 1dbd 81a8 a3bd 3a75 003d
00000360: 20b8 13be 2332 70bd 9720 2b3c e86b 133d
00000370: 823f 8b3d 05dc c1bd dc50 bdbd 90dc 47bd
00000380: 7e70 00bd ab12 ae39 7efc 13bd 9bf8 10bd
00000390: c0e0 a6be e8d5 49bd 7226 b03e 398b 84be
000003a0: e3fe 82bb 82f4 03be 82a6 72bd c567 e23d
000003b0: 25e4 41bd 0ce0 8ebd 7857 063e bc6a 3e3d
000003c0: 7386 e43d 1386 f53d 6636 083e 3263 073e
000003d0: 52e8 b03d 00a7 36bd af10 9bbb f03b cd3b
000003e0: 3465 6e3c 9cd3 0a3e 0d0d 8c3d f264 bdbd
000003f0: 3e99 473d d06f d93c e155 903d c909 02bd

model.1.sub.1.c2.bias f4 [12]
0.091071896 -0.026760012 0.067899026 0.113787785 0.0769006 0.0056899437 -0.013874453 0.10453842
0.03981616 -0.036205426 0.025497662 -0.07948212
00000000: e783 ba3d d037 dbbc a50e 8b3d 9209 e93d
00000010: 107e 9d3d b572 ba3b ac51 63bc 3d18 d63d
00000020: 4516 233d 244c 14bd 79e0 d03c 86c7 a2bd
