SDKChallengeProject/【不粘锅】一起吗2222/Together/Together/AlgorithmChanllengeProject/evaluation_Agora_0903/pre-train-model/test.pth (torch_old, 88438 bytes, 38 tensors)

body1.0.weight f4 [16, 8, 3, 3]
0	0xbc703a06	-0.014662271
1	0xbe0c8ba5	-0.13725145
2	0x3d5b26e9	0.053503904
3	0x3d262f5d	0.040572513
4	0xbe9f7448	-0.31143403
5	0xbe1be082	-0.15222362
6	0x3cee0e71	0.02905962
7	0x3e5edba6	0.21763477
8	0x3e95f464	0.29288018
9	0x3dec5d75	0.11541263
10	0x3d7d2d1c	0.061810598
11	0x3d8ad40c	0.06778726
12	0xbd4e1a1a	-0.05031786
13	0x3d11d8d2	0.035607167
14	0x3dda9b31	0.10674132
15	0xbc737dac	-0.0148615055
16	0xbe2cd849	-0.16879381
17	0xbe124ea8	-0.14287817
18	0x3c7efc9f	0.015563159
19	0xbdc5d745	-0.096602
20	0xbd4477e9	-0.047965918
21	0xbd6615cd	-0.056173135
22	0xbcd8effc	-0.026481621
23	0x3e09461c	0.13405651
24	0x3dd5c097	0.10437124
25	0x3d8caebc	0.068692654
26	0xbeac2d1b	-0.33628163
27	0xbde3355c	-0.11094162
28	0x3daca461	0.0842979
29	0xbd695622	-0.05696691
30	0x3daa6c70	0.08321464
31	0x3def9432	0.11698188
32	0x3e9d9898	0.30780482
33	0xbc7a46b3	-0.015275645
34	0xbdb3e7a1	-0.08784414
35	0xbeb4b276	-0.35292405
36	0xbce785b9	-0.028262006
37	0x3cf04104	0.029327877
38	0xbd640f49	-0.05567864
39	0x3d49cbfb	0.049266797
40	0xbe075df8	-0.1321944
41	0xbe7ac506	-0.24489221
42	0xbd128cd3	-0.03577883
43	0x3d2ddf9c	0.04244958
44	0x3ed9fcc2	0.4257565
45	0x3d45611d	0.048188318
46	0xbe17273f	-0.14761065
47	0x3dd46b6b	0.10372051
48	0xbe0a3cd2	-0.13499764
49	0x3eac6e8b	0.33678088
50	0xbd806d40	-0.06270838
51	0x3cd38e02	0.02582455
52	0xbdfceaf0	-0.12349498
53	0xbd9715a9	-0.07377178
54	0x3d5ca676	0.053869687
55	0x3df55075	0.119782366
56	0xbd5eeb54	-0.054423645
57	0x3daadd7a	0.083430246
58	0xbd8469f5	-0.06465522
59	0x3bb86ee9	0.005628456
60	0xbe06daef	-0.13169454
61	0xbd93d2bc	-0.07217929
62	0x3d20a270	0.039217412
63	0xbae95722	-0.0017802457
64	0xbbe1602f	-0.006877921
65	0x3d1d20a6	0.038361214
66	0x3bdd95f3	0.00676226
67	0x3e579045	0.21051128
68	0x3d33e228	0.04391685
69	0x3c392ccc	0.011302184
70	0xbc8c9d68	-0.0171649
71	0x3cc36094	0.023849763
72	0xbd26b800	-0.04070282
73	0xbe0da5e9	-0.13832821
74	0x3d1ecacd	0.038767625
75	0x3eb63d01	0.35593417
76	0x3cef5a7e	0.029217955
77	0xbc34d2c4	-0.011036579
78	0xbe24b335	-0.16083987
79	0x3d894fe6	0.067046925
80	0xbd3ca65e	-0.046057098
81	0xbe2cec0f	-0.16886924
82	0x3e24cc2e	0.16093513
83	0xbe410d5a	-0.1885275
84	0xbda9b037	-0.082855634
85	0x3e4fb88b	0.20285241
86	0x3cd9e13b	0.026596656
87	0x3d326a22	0.043558247
88	0x3e0e873f	0.1391878
89	0xbdd0cbdf	-0.10195135
90	0xbddef410	-0.10886395
91	0xbdce09ee	-0.10060488
92	0x3d792508	0.06082633
93	0x3e939da8	0.2883122
94	0xbb5a9bc3	-0.0033357001
95	0x3eb683aa	0.35647327
96	0xbe0ebdbb	-0.13939564
97	0x3da5a240	0.08087587
98	0xbd5f7852	-0.054558106
99	0x3b322f65	0.0027188894
100	0xbd0532c1	-0.032519106
101	0x3dc6ef12	0.09713568
102	0x3e5a4f87	0.213194
103	0xbe8e8918	-0.2783897
104	0xbdb50f36	-0.08840792
105	0xbd576293	-0.052584242
106	0x3da148e5	0.07875232
107	0x3dbdc54d	0.09266148
108	0x3bba8c28	0.0056929775
109	0x3de1db18	0.11028117
110	0xbd616556	-0.055028282
111	0x3d5a6738	0.053321093
112	0xbc9e4b00	-0.019322872
113	0xbde66909	-0.112505026
114	0x3e5737ac	0.21017331
115	0x3dd78380	0.105231285
116	0xbd9ed784	-0.0775595
117	0x3e3cfeb6	0.1845654
118	0xbe3cef9c	-0.18450779
119	0x3e10a00c	0.14123553
120	0xbd49ce33	-0.049268913
121	0xbeddac21	-0.43295386
122	0x3d1eb722	0.038748868
123	0x3e9b3570	0.30314207
124	0xbd920609	-0.07130057
125	0x3e059f7c	0.1304912
126	0xbdc328c8	-0.09529263
127	0x3ddbaf97	0.107268505
128	0xbe4aeb9f	-0.19816445
129	0xbed2401d	-0.4106454
130	0x3dba5bd9	0.0909955
131	0xbec2ab31	-0.38021234
132	0x3c7d6f87	0.015468485
133	0x3d22bbb7	0.0397298
134	0xbd2a7dc8	-0.04162386
135	0x3da922ad	0.08258567
136	0x3e8b1912	0.27167565
137	0x3e0498df	0.1294894
138	0xbe32523b	-0.17414181
139	0xbd8fc0d4	-0.07019201
140	0xbc4e185a	-0.012579048
141	0xbd2a5bfd	-0.041591633
142	0x3df321d0	0.118716836
143	0x3d9f83fa	0.077888444
144	0x3da9b272	0.08285989
145	0xbf156ab8	-0.58365965
146	0x3dabfcc8	0.083978236
147	0xbdccd6e5	-0.100019254
148	0x3f0f4492	0.55964005
149	0xbe1e11a6	-0.1543642
150	0x3d73958a	0.059468783
151	0xbe2f1793	-0.17098837
152	0x3d422f58	0.04740843
153	0xbcef5bb7	-0.029218538
154	0xbe7dd20e	-0.24787161
155	0xbdf9b43e	-0.121925816
156	0x3d18d9aa	0.037316956
157	0x3d4c1d60	0.0498327
158	0x3db14316	0.08655374
159	0x3cba7682	0.022761587
160	0x3e455cfd	0.19273753
161	0x3bbbb984	0.0057289023
162	0x3d3c82ed	0.046023298
163	0xbecc6c85	-0.39926544
164	0xbd37c619	-0.044866655
165	0xbdcd4dde	-0.100246176
166	0x3eebb3b1	0.4603553
167	0x3e1feef2	0.15618494
168	0xbcaf7f67	-0.021423055
169	0xbe0ab163	-0.1354423
170	0xbc97eef1	-0.018546553
171	0xbd2f3dd2	-0.042783566
172	0xbee0a8a0	-0.4387865
173	0xbdfd7585	-0.12375931
174	0x3e17bdda	0.14818516
175	0x3eaaa088	0.333256
176	0x3e4ed868	0.2019974
177	0xbd6c6ec8	-0.057722837
178	0x3dc4bf5d	0.09606812
179	0xbdf1a83b	-0.117996655
180	0xbe00a005	-0.12561043
181	0x3e9a6f1c	0.30162895
182	0xbd973dd8	-0.07384843
183	0x3e1ca1df	0.15296124
184	0xbf32d840	-0.6986122
185	0xbe0312c7	-0.12800132
186	0x3c8584d8	0.016298696
187	0x39cc4012	0.00038957648
188	0x3d945bb5	0.07244054
189	0x3c5ab034	0.013347674
190	0xbe2a3565	-0.16621931
191	0x3db97da2	0.09057166
192	0x3e3db2bd	0.18525214
193	0x3c506d09	0.0127213085
194	0xbde12ad9	-0.10994501
195	0xbdb7312c	-0.08944926
196	0xbced9858	-0.029003307
197	0x3dc79542	0.097452655
198	0x3d43461e	0.04767429
199	0x3db02ff0	0.08602893
200	0xbe5aa36f	-0.21351407
201	0xbdacc402	-0.08435823
202	0xbdd8bfd2	-0.10583462
203	0x3e1febd3	0.15617304
204	0x3cf8c38d	0.030366683
205	0x3dbfa41e	0.09357475
206	0x3b12feda	0.0022429735
207	0xbd1d738d	-0.038440276
208	0x3e73a9c9	0.23795237
209	0xbd1213cf	-0.035663422
210	0xbc85024c	-0.016236447
211	0xbea15be1	-0.3151541
212	0x3d7c3354	0.061572388
213	0xbd0fca88	-0.03510526
214	0x3b918611	0.004441031
215	0x3ba07747	0.0048970315
216	0xbde50ce2	-0.11184098
217	0xbe368254	-0.17823154
218	0x3b7fc33a	0.0039026276
219	0xbcff04bb	-0.031130185
220	0x3ee2a8a9	0.44269302
221	0xbe89fa28	-0.26948667
222	0x3d04c85f	0.03241765
223	0x3e4ef717	0.20211445
224	0x3e1a6c1c	0.15080303
225	0xbe2e80e1	-0.17041351
226	0x3dcddee1	0.100522764
227	0xbd714828	-0.058906704
228	0x3e86e90e	0.26349682
229	0xbe426678	-0.18984401
230	0x3cc02b35	0.023458103
231	0xbdd57cb6	-0.10424177
232	0x3dc41ad6	0.09575431
233	0x3c9043e8	0.017610505
234	0xbe2c5d92	-0.16832569
235	0x3e40740a	0.18794265
236	0xbe1f2438	-0.1554116
237	0x3e332cd8	0.17497575
238	0xbe6d9a76	-0.23203453
239	0xbd13ad5a	-0.036053993
240	0xbc501ae1	-0.012701721
241	0x3e05d0fb	0.13068001
242	0x3d81a0ce	0.06329499
243	0x3dc91a3b	0.09819456
244	0xbe443cdf	-0.19163845
245	0xbc7562ff	-0.014977216
246	0xbc1e9f3f	-0.009681522
247	0xbe966781	-0.29375842
248	0x3b88f6fa	0.0041798325
249	0x3e4ef4d6	0.20210585
250	0x3d0f29a1	0.03495181
251	0x3dcbd698	0.0995304
252	0x3dc2ad14	0.09505668
253	0xbd97eaf7	-0.07417863
254	0x3e35513f	0.17706774
255	0x3ed728dc	0.4202336

body1.0.bias f4 [16]
0	0x3da10e59	0.07864065
1	0x3e4e8ea7	0.20171605
2	0xbd15a2ec	-0.036532328
3	0x3e2beb93	0.16789083
4	0x3e308be6	0.17240867
5	0xbe8d71a0	-0.27625751
6	0x3dee7801	0.11643983
7	0x3e8736f8	0.26409125
8	0x3e034b85	0.12821777
9	0x3c5568cf	0.013025477
10	0x3cd2d6ff	0.025737284
11	0xbd5f823b	-0.054567557
12	0xbbc2fe76	-0.0059507443
13	0x3dcb26bc	0.09919497
14	0x3e85c4cf	0.26126716
15	0xbcf3954e	-0.02973428

body1.2.weight f4 [8, 16, 3, 3]
0	0x3ebc2996	0.36750478
1	0x3d9fae4e	0.07796918
2	0x3c80eb65	0.015737245
3	0x3df9de17	0.122005634
4	0x3e020a85	0.12699325
5	0xbd6d228e	-0.057894282
6	0x3d58f131	0.052964393
7	0x3b2b023a	0.0026093856
8	0x3c4f53f4	0.012654293
9	0x3c265cb7	0.010153941
10	0xbcb383ad	-0.021913374
11	0x3d33b612	0.043874808
12	0x3de8b46b	0.11362537
13	0x3d3b40c2	0.045716055
14	0xbe417eb9	-0.18895997
15	0x3cd88882	0.02643228
16	0x3baf4c85	0.005349698
17	0x3df4335b	0.11923858
18	0xbdd97789	-0.10618503
19	0x3db996f4	0.09061995
20	0x3d19ce84	0.037550464
21	0xbe4a1419	-0.19734229
22	0x3e856e09	0.26060513
23	0xbd58fc54	-0.052975014
24	0xbd4dff82	-0.0502925
25	0x3dbbeeb4	0.091763884
26	0xbe3e727c	-0.1859836
27	0x3b7a6597	0.0038207525
28	0xbd9fba25	-0.07799176
29	0x3e111e77	0.14171778
30	0x3dc88b15	0.09792153
31	0xbdeb9e83	-0.11504843
32	0xbe9a753e	-0.30167574
33	0xbc7a134d	-0.015263391
34	0x3def6a54	0.11690202
35	0xbd336638	-0.043798655
36	0xbd8d50b2	-0.06900157
37	0xbb443011	-0.0029935876
38	0x3d01e82e	0.031715564
39	0xbed97416	-0.4247138
40	0x3ec52ae2	0.3850928
41	0x3c9d346f	0.019190041
42	0xbe557a60	-0.20847464
43	0x3e0001d8	0.12500703
44	0xbdd74d97	-0.10512846
45	0x3e097a24	0.13425499
46	0x3d6cb500	0.057789803
47	0xbdc30e7c	-0.09524247
48	0x3e151713	0.14559583
49	0x3ea3c224	0.31984055
50	0xbe21e207	-0.15808879
51	0x3d1c6a25	0.038187165
52	0xbca92bbb	-0.020650735
53	0x3c1a1208	0.009403713
54	0xbd042736	-0.032263957
55	0x3cc35b06	0.023847114
56	0x3d9b6390	0.075873494
57	0x3e8a6af6	0.2703473
58	0xbea45ab7	-0.3210046
59	0xbbc90732	-0.006134891
60	0x3e03f930	0.12888026
61	0xbcbaa347	-0.022782935
62	0xbe823a3d	-0.25435057
63	0x3c0f8bf8	0.0087613985
64	0xbd10cbc0	-0.03535056
65	0xbc96a0a5	-0.018387148
66	0xbc5a6373	-0.013329375
67	0x3dce0779	0.10060019
68	0xbd47f416	-0.048816763
69	0xbc06c6e5	-0.008226131
70	0xbc8e85c8	-0.017397776
71	0xbc059dc0	-0.008155286
72	0xbe00e8b9	-0.12588777
73	0x3e559b27	0.20859967
74	0x394e4cee	0.0001967435
75	0x3c577d24	0.013152394
76	0x3cf3baeb	0.029752215
77	0xbdcf7071	-0.10128868
78	0xbc44a149	-0.012001344
79	0xbd4ad63b	-0.049520712
80	0xbdbabe77	-0.091183595
81	0xbcf51141	-0.029915454
82	0xbddeb851	-0.10874999
83	0xbd83a242	-0.064274326
84	0xbd1973ae	-0.037463836
85	0x3d79dcad	0.06100147
86	0x3f352c8d	0.70771104
87	0xbd127bc0	-0.03576255
88	0xbdca01ec	-0.09863648
89	0xbb819ad5	-0.003955225
90	0xbcd2cd0b	-0.025732538
91	0xbd510197	-0.051026907
92	0xbc10042c	-0.008790057
93	0xbd4b0720	-0.04956734
94	0x3d2853dc	0.0410956
95	0x3d337aed	0.043818403
96	0x3c012ec2	0.007884683
97	0xbd2c2d37	-0.042035308
98	0x3cde377a	0.027126063
99	0xbd00f63f	-0.03148484
100	0xbba5b365	-0.005056786
101	0x3cd2fdc0	0.025755763
102	0x3c282b73	0.010264265
103	0xbd5fa97d	-0.054604996
104	0xbbb1cea3	-0.0054262443
105	0xbe6403b2	-0.22267035
106	0xbf6fcc52	-0.93671143
107	0xbda834a7	-0.08213168
108	0xbcab655b	-0.020922353
109	0xbce8389d	-0.028347308
110	0xbca1d958	-0.019756958
111	0xbd4805d5	-0.048833687
112	0x3c9b8ad1	0.018987091
113	0x3d6bd16c	0.057572767
114	0x3d05d524	0.03267397
115	0xbcc64f0b	-0.024207612
116	0x3bb0d6e9	0.005396713
117	0x3d3473b7	0.044055667
118	0xbee3383b	-0.44378838
119	0x3e0b0f11	0.13579966
120	0xbcfee11c	-0.0311132
121	0xbd8bdf39	-0.06829686
122	0x3e3f8d9f	0.18706368
123	0x3c169877	0.009191624
124	0x3e9a3253	0.3011652
125	0xbe7cd800	-0.24691772
126	0xbe363a5b	-0.17795698
127	0x3e090579	0.13380994
128	0x3e6b2e7f	0.22966956
129	0x3de027d6	0.10945098
130	0xbcf86752	-0.030322704
131	0x3d6d06b7	0.057867732
132	0x3d87144d	0.06595669
133	0xbd3a155b	-0.045430522
134	0xbd8c1737	-0.068403654
135	0xbd0cc5da	-0.034368373
136	0xbc936c70	-0.017996043
137	0xbcf0e834	-0.029407598
138	0xbcdb1fc0	-0.026748538
139	0xbccd7dca	-0.025084395
140	0xbd8a5035	-0.067535795
141	0xbc53d98b	-0.012930284
142	0xbd43d012	-0.047805853
143	0x3a449840	0.00074994937
144	0x3d1ed0c9	0.03877333
145	0x3bf93ccb	0.007606124
146	0x3dbcb569	0.09214289
147	0xbcb0fc65	-0.021604726
148	0xbd4cf296	-0.050036035
149	0x3d8c50a2	0.06851317
150	0x3db6fc76	0.08934872
151	0xbd238849	-0.039924894
152	0xbc896e98	-0.016776368
153	0xbcbb8825	-0.022892067
154	0x3c091f91	0.008369342
155	0xbdb9f932	-0.09080733
156	0xbe0731e4	-0.13202626
157	0xbbf9c606	-0.007622483
158	0x3e808cb2	0.25107342
159	0x398a4bb0	0.00026377803
160	0x3d08a0e8	0.033356577
161	0xbdf2471d	-0.1182997
162	0x3cf9df48	0.030501977
163	0x3d166427	0.036716606
164	0x3d8fe02c	0.07025179
165	0xbd968da1	-0.07351232
166	0x3b351e95	0.0027636637
167	0x3e1b5207	0.1516801
168	0xbc879cc7	-0.01655425
169	0xbdcebd94	-0.10094753
170	0x3e019d68	0.12657702
171	0x3de2ea94	0.110798985
172	0xbe9fe818	-0.3123176
173	0xbd8e141f	-0.069374315
174	0xbdcaec4b	-0.099083506
175	0xbd709d0b	-0.058743518
176	0x3dcab987	0.09898668
177	0x3ddf06fb	0.10890003
178	0x3d20ad2f	0.03922766
179	0x3dcbcbb6	0.09950964
180	0x3d8b3820	0.06797814
181	0x3e7b44b6	0.2453793
182	0x3db3a899	0.08772392
183	0xbd8e1450	-0.06937468
184	0x3d0eeccc	0.034893796
185	0xbd66b612	-0.05632598
186	0xbc52c746	-0.012864893
187	0xbe310deb	-0.17290466
188	0x3cd56297	0.026047988
189	0x3dc34e09	0.095363684
190	0x3e31e5e0	0.17372847
191	0x3c9eadb0	0.01936993
192	0x3c5d45a2	0.013505371
193	0x3d9052f1	0.0704707
194	0x3e2679e4	0.16257435
195	0x3dab3cdb	0.08361217
196	0x3e93964e	0.2882561
197	0x3dc0ea5e	0.09419702
198	0xbc4b2f4f	-0.012401416
199	0xbdbcceea	-0.09219153
200	0xbdb1a6b9	-0.08674378
201	0xbdb6c8ab	-0.08924993
202	0x3f07474a	0.52843153
203	0x3cc8e1c8	0.024521723
204	0xbdd7f312	-0.10544409
205	0xbe23784a	-0.15963855
206	0xbda30618	-0.07960147
207	0xbc27317b	-0.010204668
208	0xbb5c4b72	-0.0033614305
209	0xbcfa8bff	-0.030584333
210	0x3c9316d9	0.01795523
211	0x3cbe940f	0.02326396
212	0xbcfc9961	-0.030834856
213	0xbc39f821	-0.011350662
214	0x3b375047	0.0027971433
215	0x3b43367b	0.0029787112
216	0x3c9a3f84	0.018829115
217	0xbdb3ed21	-0.08785463
218	0xbd9e395b	-0.077257834
219	0x3d6e3cc0	0.058163404
220	0xbd6cd920	-0.057824254
221	0x3dd36b8d	0.10323248
222	0x3d86f8a4	0.06590393
223	0xbd06da4b	-0.032923024
224	0xbe1edaa0	-0.15513086
225	0xbb4cbb82	-0.0031239693
226	0x3d009b59	0.03139815
227	0xbc00cc8f	-0.007861271
228	0xbd508964	-0.050912276
229	0xbd5264ae	-0.051365547
230	0xbed3fb5b	-0.41402707
231	0x3c9abed4	0.018889822
232	0xbc8e7204	-0.017388351
233	0x3d098b56	0.033580147
234	0xbcf429d6	-0.029805105
235	0xbc73408d	-0.014846933
236	0x3c0d29e0	0.008615941
237	0xbd57910d	-0.052628566
238	0x39e8caa3	0.00044401464
239	0xbc8cd484	-0.01719118
240	0xba190ec6	-0.0005838688
241	0x3d1252cb	0.03572349
242	0xbcf95091	-0.030433925
243	0xbca62cc3	-0.020285016
244	0x3c39d8f8	0.011343233
245	0x3cc8c0cd	0.024505997
246	0xbdd26cda	-0.10274668
247	0x3c82685c	0.015918903
248	0x3d0680eb	0.03283779
249	0x3c94f2a9	0.018182116
250	0x3ef12e4b	0.4710563
251	0x3dc9e808	0.098587096
252	0xbd2486db	-0.04016767
253	0xbc01619d	-0.007896808
254	0xb9fc6e9f	-0.00048147605
255	0xbb86a098	-0.0041084997

body1.2.bias f4 [8]
0	0x3d125046	0.035721086
1	0x3e1c62e8	0.15272105
2	0xbe7f432b	-0.24927966
3	0x3f034836	0.5128206
4	0x3ddc266e	0.107495174
5	0x3ec1229a	0.3772171
6	0xbd8d8c0b	-0.06911477
7	0xbb3450c5	-0.0027513963

body2.0.weight f4 [16, 8, 3, 3]
0	0xbda01427	-0.07816344
1	0xbe29cdbe	-0.1658239
2	0xbc86d9d2	-0.016461287
3	0xbbde9137	-0.0067922133
4	0x3f0c2559	0.5474449
5	0x3e25568c	0.16146296
6	0xbe34e3b2	-0.17664984
7	0x3da92a96	0.08260076
8	0xbd9f2fa4	-0.077727586
9	0x3cb6c804	0.022312172
10	0x3df4537f	0.11929988
11	0xbe44cac5	-0.19217975
12	0x3e54d8ca	0.20785823
13	0x3e77086e	0.2412431
14	0xbe99b821	-0.30023292
15	0x3e3f369e	0.18673179
16	0x3e1d6bee	0.15373203
17	0xbeece955	-0.46271768
18	0x3c43f673	0.011960614
19	0xbda926f0	-0.0825938
20	0x3d706d4e	0.05869799
21	0xbdd31854	-0.103073746
22	0x3e757a50	0.2397244
23	0xbdd48a72	-0.10377969
24	0x3c404f83	0.011737707
25	0x3d494338	0.04913637
26	0xbd0c7063	-0.034286868
27	0x3c8ad1c4	0.016945727
28	0x3d3c3a6a	0.045954145
29	0xbe12586d	-0.14291544
30	0xbdd9a3df	-0.10626959
31	0x3e96c031	0.29443505
32	0xbe321715	-0.17391618
33	0x3d103608	0.03520778
34	0x3e0dbac3	0.13840775
35	0x3d48aae6	0.048991106
36	0x3dd274c0	0.102761745
37	0xbe2e6ade	-0.17032954
38	0x3d1a63de	0.037692897
39	0xbdc20600	-0.09473801
40	0x3dd826dc	0.10554287
41	0xbe7a8490	-0.24464631
42	0x3d34c507	0.044133212
43	0xb9392a88	-0.00017658819
44	0x3dad2779	0.084547944
45	0x3d74c9b0	0.059762657
46	0xbd299c60	-0.041408896
47	0x3c66e37d	0.014092323
48	0x3d44b031	0.04801959
49	0x3d2e6f5d	0.042586673
50	0xbd333907	-0.043755557
51	0x3bde2ac0	0.0067799985
52	0x3d4432a0	0.047899842
53	0xbe4b866f	-0.19875501
54	0x3d252249	0.0403159
55	0x3d3b4484	0.04571964
56	0xbd85ea26	-0.06538801
57	0xbe5b0786	-0.21389589
58	0xbe078447	-0.13234054
59	0xbd9facc9	-0.07796628
60	0xbcd82a28	-0.02638729
61	0xbe1ed6e4	-0.15511662
62	0x3f4a9110	0.791276
63	0x3d9aaca2	0.07552458
64	0x3dd87a54	0.10570207
65	0x3bbb90a2	0.0057240287
66	0x3d8a6c2a	0.06758912
67	0xbe916a21	-0.28401282
68	0xbe75aa29	-0.23990692
69	0x3d233184	0.039842144
70	0xbd05156b	-0.03249113
71	0x3e48a143	0.19592766
72	0x3d2aeaee	0.041727953
73	0x3e1c0ad6	0.15238509
74	0xbd10d2c0	-0.035357237
75	0x3e0d0945	0.13773067
76	0x3ce6e05c	0.028183155
77	0xbdeb8e31	-0.1150173
78	0xbcfff44f	-0.031244425
79	0x3ddcf943	0.107897304
80	0xbd579190	-0.052629054
81	0x3e49648f	0.19667266
82	0x3e2043d6	0.15650877
83	0x3d8fa946	0.07014708
84	0xbe910e16	-0.2833106
85	0x3e18aa05	0.14908607
86	0xbd4c3bea	-0.049861826
87	0xbdc713ed	-0.097205974
88	0xbd9d3c3f	-0.07677507
89	0xbdcc3d2f	-0.09972607
90	0xbdbbba25	-0.091663636
91	0xbd01d190	-0.031693995
92	0xbbc2baaa	-0.0059426622
93	0x3e4bd23d	0.19904418
94	0xbe0ecb51	-0.13944747
95	0x3dbd71cb	0.0925022
96	0xbd7706e0	-0.06030929
97	0x3e918d9b	0.2842835
98	0xbdf9e980	-0.1220274
99	0x3d1e1f98	0.03860435
100	0x3e2f3b1b	0.1711239
101	0x3db44f21	0.08804155
102	0x3e60fa6c	0.21970528
103	0x3e338d98	0.17534482
104	0x3e27c336	0.16383061
105	0xbe1c8ecc	-0.15288848
106	0xbf064957	-0.5245566
107	0xbda99ee6	-0.082822606
108	0xbd9007d0	-0.0703274
109	0x3e1b695a	0.15176907
110	0xbd83f78d	-0.06443701
111	0x3e18e06e	0.14929363
112	0xbd74102d	-0.05958574
113	0x3e7e960c	0.24861926
114	0xbdc41a09	-0.09575278
115	0xbcc77a60	-0.024350345
116	0xbe03ffe1	-0.12890579
117	0x3d45ab21	0.048258904
118	0xbdb00c90	-0.08596146
119	0xbc2c0098	-0.010498188
120	0xbddfe304	-0.10931972
121	0x3d297f56	0.041381203
122	0xbd8f2722	-0.06989886
123	0xbd5d8947	-0.054085996
124	0x3e2ea69f	0.17055748
125	0xbb706128	-0.0036679003
126	0xbdb2a15c	-0.08722183
127	0x3e69df6b	0.22839133
128	0x3dac3b42	0.0840974
129	0x3e811c22	0.25216776
130	0xbb0e165d	-0.002168081
131	0x3e999e64	0.30003655
132	0x3e0a1b3d	0.13486953
133	0xbf3a401b	-0.7275407
134	0xbcc5862b	-0.024111828
135	0xbc2c415d	-0.010513631
136	0x3e14ac62	0.14518884
137	0xbc5364b9	-0.012902432
138	0xbe21c511	-0.15797831
139	0x3cd31fc4	0.025771983
140	0x3e1db6b5	0.15401728
141	0x3dce460d	0.10071955
142	0xbe376e8a	-0.17913261
143	0xb93cc4d8	-0.00018002407
144	0xbd9602b2	-0.07324733
145	0xbd8eff7a	-0.06982322
146	0xbd25f7a0	-0.040519357
147	0x3e163dc7	0.14672004
148	0x3ea0a87e	0.3137855
149	0xbd17c93e	-0.037057154
150	0x3d147220	0.03624165
151	0xbdeea14b	-0.11651858
152	0x3de79347	0.11307388
153	0xbd0ce866	-0.03440132
154	0xbcf7463f	-0.030184863
155	0x3cddc996	0.027073663
156	0x3df0970f	0.11747562
157	0x3ed5a27a	0.41725522
158	0xbe8bfa4e	-0.27339405
159	0x3d1783b9	0.036990855
160	0xbc014dd2	-0.007892089
161	0xbdffdde9	-0.12493498
162	0x3c26dc25	0.0101843225
163	0xbc966c65	-0.018362233
164	0xbc8891ba	-0.01667105
165	0xbd0329ca	-0.032022275
166	0xbd736f2a	-0.059432186
167	0x3cbce221	0.023057045
168	0xbd3c4bfc	-0.0459709
169	0x3dd0dd00	0.101984024
170	0x3bb46f4b	0.005506431
171	0xbc91f53a	-0.017817128
172	0xbdd20897	-0.10255545
173	0xbbfdb3c2	-0.007742376
174	0xbdc7b7e9	-0.09751875
175	0x3e41d207	0.18927775
176	0xbcd3514f	-0.025795607
177	0x3ce62a56	0.02809636
178	0x3d8e83c3	0.06958725
179	0xbe821f5b	-0.25414547
180	0x3c50ba18	0.012739681
181	0xbdbab59a	-0.09116669
182	0xbd8d233d	-0.06891487
183	0xbdf57aab	-0.11986288
184	0xbe80e1af	-0.25172183
185	0x3e3a28d6	0.1817964
186	0x3b2e618d	0.0026608438
187	0x3e7906c9	0.24318995
188	0x3a3dda8c	0.0007242344
189	0xbbafa52a	-0.0053602653
190	0x3cbbafb6	0.022910934
191	0xbb90a367	-0.0044140103
192	0x3cc80beb	0.024419745
193	0xbcedacdc	-0.02901309
194	0x3b818630	0.003952764
195	0xbd84a50b	-0.06476792
196	0x3d9342d2	0.07190479
197	0xbc297a97	-0.010344169
198	0x3d9d1a1d	0.07670996
199	0xbd7d5239	-0.06184599
200	0xbc5cd1c5	-0.013477747
201	0xb90a165a	-0.00013169032
202	0xbdd11575	-0.10209171
203	0x3d785239	0.06062529
204	0x3d9bf856	0.07615726
205	0xbdea3f5c	-0.11437866
206	0xbe132dba	-0.14372912
207	0x3dbe5348	0.092932284
208	0x3d0e8209	0.03479198
209	0xbd04416a	-0.032288946
210	0x3df7697e	0.12080668
211	0xbd572c44	-0.05253245
212	0xbc8c743d	-0.01714527
213	0xba6d11a9	-0.0009043464
214	0xbcf7d029	-0.030250626
215	0x3c58b206	0.013226038
216	0xbcda1568	-0.026621535
217	0x3e15a01e	0.14611861
218	0xbe5118c1	-0.20419599
219	0x3e9a368e	0.30119747
220	0x3e553a8d	0.20823117
221	0x3eabd782	0.33562857
222	0xbe474f02	-0.19463733
223	0x3dbb98b5	0.09159986
224	0xbe0d7615	-0.13814576
225	0x3e80cb08	0.251549
226	0xbbb09d8b	-0.0053898743
227	0xbf02509b	-0.50904244
228	0x3c664796	0.014055153
229	0x3e0ddd72	0.13854006
230	0xbe83c293	-0.25734386
231	0x3ddae720	0.10688615
232	0x3e636655	0.22207005
233	0xbd1a1447	-0.037616994
234	0x3e384051	0.17993285
235	0x3d835760	0.0641315
236	0xbdb17af8	-0.086660326
237	0x3eaabe61	0.33348373
238	0xbe97a100	-0.2961502
239	0x3d80c02d	0.062866546
240	0xbc9931ad	-0.018700445
241	0xbb88c402	-0.0041737566
242	0x3d400670	0.04688114
243	0x3e767c1a	0.24070778
244	0x3dc4e77e	0.09614466
245	0xbe8d6ddb	-0.27622876
246	0x3ed74351	0.42043546
247	0x3c62cbae	0.013842506
248	0xbe8cd2ce	-0.2750458
249	0xbbd2778f	-0.006422944
250	0xbd56e170	-0.052461088
251	0x3dadc9bc	0.084857434
252	0xbcb6487e	-0.022251364
253	0x3e288dc2	0.16460326
254	0x3dd57f2a	0.10424645
255	0xbc7bbd32	-0.015364932

body2.0.bias f4 [16]
0	0xbd97fd3b	-0.07421347
1	0xbd3081df	-0.043092605
2	0xbdb33a18	-0.08751315
3	0xbba22313	-0.004948029
4	0xbcf87458	-0.030328915
5	0x3d30f7ae	0.043204956
6	0x3bfe55ce	0.0077616936
7	0xbdc482a5	-0.09595231
8	0xbce7408b	-0.028229019
9	0xbc59d7cd	-0.01329608
10	0xbe280cd3	-0.16411142
11	0x3e43fe55	0.19139989
12	0x3e48d77b	0.1961345
13	0xbd8c7fd8	-0.06860322
14	0x3d994ecd	0.07485733
15	0x3d87f5b6	0.066386625

body2.2.weight f4 [8, 16, 3, 3]
0	0x3daa1a91	0.083058484
1	0x3e314c69	0.17314304
2	0x3c28d69b	0.010305072
3	0x3d13640c	0.035984084
4	0x3dd92617	0.10602968
5	0x3d95782c	0.072983116
6	0x3cb9c05b	0.02267473
7	0x3d7f5b98	0.06234321
8	0x3d9e4db1	0.07729662
9	0xbd0547cc	-0.032539174
10	0x3d1df4f6	0.03856369
11	0x3b6c65df	0.0036071462
12	0xbe0b7f02	-0.13622668
13	0xbe759fe1	-0.2398677
14	0xbd37fe11	-0.04492003
15	0xbd195465	-0.037434
16	0xbdce28ad	-0.10066352
17	0x3d07daf6	0.0331678
18	0x3dd54790	0.1041404
19	0xbe850f00	-0.25988007
20	0x3d8ad57a	0.06778999
21	0xbdb8c034	-0.09021035
22	0x3e79be78	0.24389064
23	0x3d020aaa	0.03174845
24	0x3cfa0b5d	0.030522997
25	0xbcd1395b	-0.025540045
26	0xbdc5f105	-0.096651115
27	0xbd553905	-0.05205633
28	0xbdaee28d	-0.08539305
29	0xbce252ce	-0.027627375
30	0xbe4df5c9	-0.20113291
31	0xbd964df9	-0.07339091
32	0x3dfcd3c9	0.12345082
33	0x3cf51f34	0.029922105
34	0xbd7adb94	-0.061244562
35	0xbe238e87	-0.15972339
36	0xbdfb6b4e	-0.12276326
37	0x3daa9dda	0.08330889
38	0xbd0c3826	-0.034233235
39	0x3e02e18a	0.12781349
40	0xbe9158a2	-0.28387934
41	0x3dae5b1a	0.0851347
42	0x3c47e068	0.012199499
43	0x3ea9fece	0.33202213
44	0xbdb17dd0	-0.08666575
45	0xbc8099f7	-0.015698416
46	0x3d192a01	0.037393574
47	0x3c4b619c	0.012413409
48	0x3dcb1851	0.09916747
49	0xbcf26a01	-0.029591562
50	0xbe129807	-0.14315806
51	0xbd16e374	-0.03683801
52	0xbda3dd78	-0.08001226
53	0xbc873618	-0.016505286
54	0x3c7f2455	0.015572627
55	0x3d1e4808	0.038642913
56	0xbb9576c0	-0.0045612752
57	0xbc41ac63	-0.011820885
58	0x3cb35acc	0.021893881
59	0x3b92473d	0.0044640587
60	0xbc085303	-0.008320573
61	0xbcbd8b0c	-0.023137592
62	0xbc7810f3	-0.01514076
63	0x3c537d4c	0.012908291
64	0xbc2e6f07	-0.010646588
65	0x3d309495	0.04311045
66	0x3e25e916	0.16202196
67	0x3e091f03	0.13390736
68	0x39f20ecd	0.00046168864
69	0x3d6370a6	0.05552735
70	0xbd997782	-0.074934974
71	0x3ccb4a54	0.024815716
72	0x3c70b9b4	0.014692713
73	0xbcdba6a6	-0.026812863
74	0x3cb5cb91	0.022191795
75	0xbdadbf2d	-0.084837295
76	0x3d9fe14c	0.07806644
77	0xbd4f5c55	-0.050625164
78	0xbcf06dd3	-0.029349243
79	0xbdf06bbb	-0.11739298
80	0xbd2937af	-0.04131287
81	0xbe871cc2	-0.26389128
82	0x3e4816af	0.19539903
83	0x3cfa4af2	0.030553315
84	0xbeed8181	-0.46387866
85	0x3e322da6	0.17400226
86	0x3dc46e5c	0.09591362
87	0xbdf7e1d9	-0.12103624
88	0x3e19a70d	0.15005131
89	0x3d7d2949	0.06180695
90	0xbda86dc6	-0.082240626
91	0xbcc60afd	-0.024175161
92	0xbd433c32	-0.04766483
93	0x3c43b7b5	0.011945655
94	0x3dc411b1	0.09573687
95	0xbda7627f	-0.081730835
96	0x3d148b63	0.036265742
97	0xbdb0c8c0	-0.0863204
98	0x3b9232ea	0.004461636
99	0xbd0904ce	-0.033451848
100	0x3e1bf239	0.1522912
101	0xbdb836ef	-0.08994853
102	0x3ebae72d	0.36504498
103	0x3eee5402	0.46548468
104	0xbdbd0fe0	-0.092315435
105	0x3e773943	0.24142937
106	0x3d32f06b	0.04368631
107	0xbd178a71	-0.036997262
108	0x3b8427f5	0.0040330836
109	0xbe7f97e4	-0.24960285
110	0x3dfc2294	0.12311283
111	0x3d6368f9	0.05552003
112	0x3e00dedd	0.12585016
113	0x3c764787	0.015031702
114	0x3e48d13a	0.19611064
115	0xbd4d8f28	-0.050185353
116	0x3d7d9820	0.061912656
117	0x3cb64192	0.022248063
118	0x3db3b134	0.08774033
119	0x3b1f4784	0.0024304101
120	0xbc8572cb	-0.01629009
121	0xbccacee4	-0.024756856
122	0xbda099f9	-0.07841868
123	0x3cafae8e	0.021445539
124	0x3c6d0859	0.014467322
125	0x3d71a5d4	0.058996037
126	0xbdbfe493	-0.09369769
127	0xbe591e8d	-0.2120306
128	0x3c9b026f	0.018922059
129	0x3e18947b	0.14900391
130	0xbe2d056a	-0.16896597
131	0xbe1d04da	-0.15333882
132	0xbdebc6b2	-0.115125075
133	0x3e082dbf	0.13298701
134	0xbc3f2a69	-0.011667826
135	0x3d8056c9	0.06266553
136	0x3d26bd37	0.040707793
137	0xbca4c941	-0.020115497
138	0xbd9d0087	-0.07666116
139	0x3aba4533	0.0014211297
140	0xbd981d31	-0.07427443
141	0xbc8d024b	-0.017213007
142	0xbdf8dd87	-0.12151628
143	0x3db2d917	0.08732813
144	0xbd5775e3	-0.05260266
145	0xbda8bb5b	-0.0823886
146	0xbca80e22	-0.020514552
147	0xbe20f24d	-0.1571743
148	0xbe3ff7cc	-0.18746871
149	0xbdeaf0b8	-0.11471695
150	0xbcbe04f3	-0.02319572
151	0xbdf3e4f5	-0.119089045
152	0xbda87fec	-0.08227524
153	0x3e0cd807	0.13754283
154	0x3e02d693	0.12777166
155	0xbcfaac97	-0.030599875
156	0x3d64ae2a	0.05583016
157	0x3dd99da7	0.10625773
158	0x3d0119ae	0.03151863
159	0x3dba403d	0.09094284
160	0x3dfcdd28	0.1234687
161	0x3d9c6795	0.07636944
162	0xbea0909f	-0.31360337
163	0xbc9831a6	-0.018578362
164	0xbd8f49f0	-0.06996524
165	0x3dcad863	0.09904554
166	0xbd99a31f	-0.07501816
167	0x3e06dc9b	0.13170092
168	0xbcdf4340	-0.027253747
169	0xbd8981b0	-0.06714189
170	0x3e275a44	0.16343027
171	0xbda010ac	-0.0781568
172	0xbdc57736	-0.09641878
173	0xbd3f4584	-0.046697155
174	0xbca38e66	-0.019965362
175	0xbe69dbb3	-0.22837715
176	0xbd502d3a	-0.05082438
177	0x3e287ebf	0.164546
178	0xbe12fbae	-0.1435382
179	0x3de4ce9d	0.11172221
180	0xbcc4e6b6	-0.024035793
181	0xbd825a53	-0.06364884
182	0xbdd68530	-0.10474622
183	0xbd5ebcdd	-0.054379333
184	0xbd0742fe	-0.033022873
185	0xbc8a4502	-0.016878609
186	0x3cb04b0a	0.021520156
187	0x3c13a567	0.009011603
188	0x3d9607b1	0.07325686
189	0xbe2062f6	-0.1566275
190	0xbd9c0b04	-0.076192886
191	0x3e1f7860	0.15573263
192	0xbdcdb036	-0.10043375
193	0xbdf16302	-0.11786462
194	0x3e68a768	0.2272011
195	0xbc495847	-0.012289113
196	0xba86213f	-0.0010233297
197	0x3d9498d6	0.07255714
198	0x3cd9536a	0.026529033
199	0x3b1c8e88	0.0023888666
200	0xbcbb2338	-0.022843942
201	0x3d31b396	0.043384157
202	0x3d072fb3	0.033004474
203	0xbc9d6fe6	-0.019218396
204	0x3cd98b91	0.026555808
205	0xbcd62951	-0.026142748
206	0xbc5bae78	-0.013408296
207	0xbde50539	-0.11182637
208	0xbe1b0f7e	-0.15142629
209	0xbd65cd26	-0.056103848
210	0xbe3957a9	-0.18099846
211	0x3e376f55	0.17913564
212	0xbdc9fb72	-0.098624125
213	0xbe1057e2	-0.14096025
214	0xbd88dea1	-0.06683088
215	0xbe348961	-0.17630531
216	0x3e032a81	0.12809183
217	0x3de8d87a	0.11369415
218	0x3df05b64	0.117361814
219	0x3de575ae	0.11204086
220	0xba8e987c	-0.0010879184
221	0x3e972217	0.29518196
222	0x3d25336c	0.040332243
223	0x3df01f6a	0.11724742
224	0x3e0f3cbf	0.13988017
225	0xbeb06458	-0.34451556
226	0xbdd7b56a	-0.10532649
227	0x3d512d04	0.05106832
228	0x3d8e5d1e	0.069513544
229	0x3c620e4e	0.013797356
230	0xbce08409	-0.02740671
231	0xbda769d8	-0.08174485
232	0x3ca80936	0.020512205
233	0x3cf4ba4d	0.029873991
234	0xbcb6dcab	-0.02232202
235	0xbd053ba3	-0.032527577
236	0x3c1a61dd	0.0094227465
237	0xbd0c2d06	-0.034222625
238	0xbd5492b7	-0.05189773
239	0x3d0a23d5	0.03372558
240	0x3c9ecfd7	0.019386215
241	0x3d91afaf	0.07113587
242	0xbd6490a6	-0.05580201
243	0x3d6b0845	0.057380933
244	0x3d12f49c	0.03587781
245	0x3cdec165	0.027191827
246	0xbe80e0a9	-0.25171402
247	0xbcf1d768	-0.029521659
248	0x3cd9db25	0.026593754
249	0xbdca5fef	-0.09881579
250	0x3c930fa3	0.017951792
251	0x3da95335	0.082678236
252	0xba93d5f3	-0.0011278972
253	0xbe3c7c6b	-0.18406837
254	0xbd9a5b46	-0.0753694
255	0x3dcec08a	0.10095318

body2.2.bias f4 [8]
0	0xbe12a33d	-0.14320083
1	0x3dcc0792	0.099623814
2	0xbdb9a78f	-0.090651624
3	0xbce4e606	-0.027941715
4	0x3de4dc70	0.111748576
5	0x3d73f7a3	0.059562337
6	0xbda9afdb	-0.08285495
7	0xbd98c8a1	-0.07460142

body3.0.weight f4 [16, 8, 3, 3]
0	0x3e05ebbd	0.13078208
1	0xbb9bb9a2	-0.0047523538
2	0xbd9a77e8	-0.075424016
3	0x3c6f46fc	0.014604326
4	0xbd0828d6	-0.03324207
5	0xbcef354e	-0.029200222
6	0xbdab0577	-0.08350652
7	0xbb0cd807	-0.0021491067
8	0x3daff849	0.085922785
9	0x3e442a0b	0.19156663
10	0xbde3bcf2	-0.11120023
11	0xbd1d8671	-0.03845829
12	0x3e9b5028	0.30334592
13	0xbe913cb4	-0.28366625
14	0xbd1a94c5	-0.037739534
15	0x3e20f1c6	0.15717229
16	0xbe233cd5	-0.15941174
17	0xbc76ada1	-0.015056045
18	0x3c31e741	0.010858358
19	0xbb5afc28	-0.0033414457
20	0x3c2651d2	0.010151343
21	0xbc343a0d	-0.0110001685
22	0xbd52c01e	-0.05145275
23	0x3d1b8b2f	0.037974533
24	0x3d98186b	0.07426532
25	0xbd4f2501	-0.0505724
26	0x3c072308	0.008248098
27	0x3dfa704f	0.122284524
28	0xbd90b550	-0.070658326
29	0xbd27fe52	-0.041014023
30	0x3eabb53b	0.33536705
31	0xbeb58962	-0.35456377
32	0xbca97b9b	-0.020688822
33	0x3de9e629	0.11420853
34	0xbe09b05f	-0.13446186
35	0xbd436731	-0.047705833
36	0x3c8aec8c	0.016958497
37	0xbd31c7c0	-0.043403387
38	0x3b7eb830	0.0038867109
39	0x3dae3626	0.08506422
40	0xbe2b4f48	-0.16729462
41	0x3cc552d3	0.024087345
42	0x3cd69b47	0.026197089
43	0xbb2a88b2	-0.0026021418
44	0xbcd261e4	-0.025681444
45	0xbb8b1646	-0.0042445986
46	0x3ce0f9fb	0.02746295
47	0xbc7b3d2a	-0.015334407
48	0x3d2f7dfe	0.042844765
49	0x3da5a74e	0.080885515
50	0xbd514f34	-0.051100925
51	0x3a5165fd	0.0007987915
52	0xbd0b2ac2	-0.033976324
53	0xbc364d86	-0.011126881
54	0x3ac14456	0.0014745097
55	0xbd85b5cb	-0.06528815
56	0x3d44b64e	0.04802542
57	0x3dbc85d8	0.09205216
58	0xbedce9f6	-0.43147248
59	0x3e1b40be	0.15161416
60	0x3c375c33	0.011191416
61	0xbd4ce1ad	-0.05001991
62	0xbcca055c	-0.024660759
63	0x3bded9b4	0.0068008546
64	0xbd9c1eb9	-0.076230474
65	0x3cc0ecad	0.023550356
66	0x3daae845	0.08345083
67	0xbec7fd21	-0.3906031
68	0x3e028afb	0.1274833
69	0x3d56dba3	0.052455556
70	0xbdaa85e2	-0.08326317
71	0x3973a29c	0.00023234863
72	0xbd6f647c	-0.05844544
73	0xbcfce779	-0.030872094
74	0xbaeba965	-0.0017979561
75	0xbe032e60	-0.1281066
76	0xbd98a515	-0.07453362
77	0xbbe9ea14	-0.0071385
78	0xbd931fc9	-0.07183797
79	0xbd50ad81	-0.050946716
80	0xbd510867	-0.051033404
81	0xbdc306a0	-0.09522748
82	0x3d1566d2	0.03647501
83	0x3c964369	0.01834269
84	0xbed7e053	-0.42163333
85	0xbd595746	-0.053061746
86	0x3d23e661	0.04001463
87	0xbd1bf2a4	-0.038073197
88	0x3cf7e798	0.0302618
89	0x3ae7b49d	0.0017677728
90	0x3d2b0d53	0.041760754
91	0x3d4dae9e	0.050215356
92	0x3ca1f2f9	0.019769179
93	0x3e225e0a	0.15856186
94	0x3da8187b	0.08207794
95	0x3c39f3d8	0.011349641
96	0x3cac60f5	0.021042326
97	0x3d1ba858	0.038002342
98	0x3cdc07e8	0.026859239
99	0xbd88f7c6	-0.06687884
100	0xbc4a2982	-0.012338998
101	0x3a623e2c	0.000863048
102	0xbead4ef4	-0.338493
103	0xbcbfef31	-0.023429485
104	0xbb8563f1	-0.004070752
105	0xbd203e21	-0.03912175
106	0xbc99966d	-0.018748486
107	0x3c05997a	0.008154267
108	0xbc38ba3c	-0.0112748705
109	0x3d08abf7	0.033367123
110	0xbc918b18	-0.01776652
111	0xbd991156	-0.0747401
112	0x3dd219d9	0.10258836
113	0x3b369f77	0.0027866045
114	0xbd414e12	-0.047193594
115	0xbc1eac14	-0.009684581
116	0x3c9d9828	0.019237593
117	0x3b5e9bc9	0.0033967367
118	0x3bbb0643	0.0057075336
119	0x3bc4e33b	0.0060085333
120	0x3db0ef2d	0.08639369
121	0x3af5b0a1	0.0018744656
122	0x3c00e4a4	0.007867012
123	0xbc281d6a	-0.010260919
124	0x3c50bcb2	0.012740301
125	0x3d066850	0.032814324
126	0xbc2268e2	-0.009912701
127	0x3ccc2730	0.02492103
128	0xbd56d310	-0.05244738
129	0xbe04525b	-0.12922041
130	0x3e036e8b	0.12835138
131	0xbc4fe0a0	-0.012687832
132	0xbc8825d5	-0.016619602
133	0x3cb15bfd	0.021650309
134	0xbc92c697	-0.01791696
135	0xbc97469b	-0.018466284
136	0x3d72aa23	0.059244286
137	0xbc97c788	-0.018527761
138	0x3e4ead0e	0.20183203
139	0x3e05bae9	0.13059582
140	0xbc011bda	-0.0078801755
141	0xbd0c9199	-0.03431854
142	0x3d4417d3	0.047874283
143	0x3c584a01	0.013201238
144	0x3d619381	0.05507231
145	0x3e8203ee	0.25393623
146	0xbdfb3abe	-0.122670636
147	0xbec4ad52	-0.38413483
148	0x3e1d9a48	0.15390885
149	0x3bb5dd6a	0.0055500763
150	0x3d61b12c	0.055100605
151	0xbcf33f58	-0.02969329
152	0x3b9481d0	0.0045320764
153	0xbceaf9fc	-0.028683655
154	0x3d2b71d9	0.04185662
155	0xbd9f22e7	-0.07770329
156	0xbd1e63a1	-0.038669232
157	0x3d476ae3	0.04868592
158	0x3dc9abe4	0.09847239
159	0x3d81a7ed	0.063308574
160	0xbdbf776c	-0.0934895
161	0xbcaf1b31	-0.02137527
162	0xbd33f30b	-0.043932956
163	0xbd8f6c9e	-0.07003139
164	0x3d96acbf	0.073571675
165	0x3e44bf0d	0.19213505
166	0x3d97acdf	0.074060194
167	0xbdbc1787	-0.09184175
168	0xbddb9a8d	-0.107228376
169	0x3e294a37	0.16532217
170	0xbdd3821b	-0.1032755
171	0x3add12cb	0.0016866563
172	0xbd9ae247	-0.0756269
173	0xbd3714e7	-0.04469767
174	0xbd630cfe	-0.055432312
175	0x3e4f3b73	0.20237522
176	0x3c99710e	0.018730666
177	0x3e6a014b	0.22852056
178	0xbe6e1615	-0.23250611
179	0xbdb4f594	-0.08835903
180	0xbd7dd074	-0.061966375
181	0xbe5b4957	-0.21414696
182	0x3ca7bee9	0.020476775
183	0x3f059af6	0.52189577
184	0x3b68e8cd	0.003553915
185	0x3c9588e4	0.018253751
186	0xbea956bb	-0.33073983
187	0x3ea7607e	0.32690805
188	0xbdea5db5	-0.114436544
189	0xbc60716a	-0.013698915
190	0x3c0c55e4	0.0085654
191	0x3b5ebde4	0.0033987695
192	0xbc3c9ff2	-0.011512743
193	0x3c9207e6	0.017826032
194	0xbd5c6218	-0.053804487
195	0x3d6cbd01	0.057797436
196	0x3c2b5675	0.010457625
197	0xbca2218d	-0.019791389
198	0xbc46dc9d	-0.012137559
199	0xbe3f4e0b	-0.18682115
200	0xbe08aa0a	-0.13346115
201	0x3e2bfe49	0.16796221
202	0x3e43c51d	0.19118161
203	0x3e6f6f55	0.23382314
204	0xbe3aec52	-0.18254212
205	0xbdcbf81b	-0.09959432
206	0xbcd6ab8b	-0.026204845
207	0xbc950527	-0.018190933
208	0xbe92e10a	-0.28687316
209	0xbd83056f	-0.06397521
210	0x3eb86266	0.36012572
211	0x3dd27ff6	0.10278313
212	0x3e5baed3	0.21453409
213	0xbec17e09	-0.3779147
214	0x3e1134a7	0.14180242
215	0xbd94b984	-0.07261947
216	0xbd4bcae7	-0.04975405
217	0xbdb3c759	-0.08778257
218	0x3cd76fe8	0.026298478
219	0xbd708812	-0.058723517
220	0x3df2e5b4	0.11860219
221	0x3bfaa166	0.0076486347
222	0x3dca5a9a	0.09880562
223	0x3e2ea97f	0.17056845
224	0x3d86e56f	0.0658673
225	0x3d60cf75	0.054885346
226	0x3d6dad6c	0.058026716
227	0x3cd67734	0.026179887
228	0xbca3e955	-0.020008722
229	0x3ebfa5b0	0.37431097
230	0x3dfcd2bc	0.12344882
231	0xbd97f21f	-0.07419228
232	0xbeda7de5	-0.42674175
233	0xbdc3c94e	-0.0955988
234	0x3d802c3a	0.062584355
235	0x3d92e508	0.071725905
236	0x3d1b5a49	0.0379279
237	0x3c7a2e2e	0.015269799
238	0x3e80668d	0.2507824
239	0x3d86b58e	0.065775976
240	0xbd62423b	-0.055238944
241	0xbeb64dec	-0.35606325
242	0xbd8829ae	-0.06648575
243	0x3c6dcbec	0.014513951
244	0x3d1893d7	0.037250366
245	0xbccaadf8	-0.024741158
246	0xbd30f7d3	-0.043205094
247	0xbdf4b369	-0.11948282
248	0x3cc08e11	0.023505243
249	0xbd6e2ea0	-0.058149934
250	0xbcec52ff	-0.02884817
251	0xbd3144ac	-0.04327838
252	0xbd4761ee	-0.048677377
253	0xbd855078	-0.06509489
254	0xbd5f5022	-0.05451978
255	0xbc84cfa2	-0.016212288

body3.0.bias f4 [16]
0	0xbc334e2a	-0.010943929
1	0xbef64122	-0.48096567
2	0x3bdaa149	0.0066720587
3	0xbc01f6ee	-0.007932408
4	0x3e8679ac	0.26264703
5	0xbc111553	-0.008855182
6	0xbd167191	-0.0367294
7	0xbc1723c0	-0.009224832
8	0xbd7a54d5	-0.06111606
9	0xbca782e3	-0.020448154
10	0xbb9c067c	-0.004761515
11	0x3b30d68e	0.0026983353
12	0x3e75fde8	0.24022639
13	0xbb65d67d	-0.0035070472
14	0xbd146f2c	-0.036238834
15	0x3cc2d71e	0.023784216

body3.2.weight f4 [8, 16, 3, 3]
0	0x3c04e75e	0.008111803
1	0xbdfd93b5	-0.123816885
2	0xbcfa0990	-0.030522138
3	0x3d72e15d	0.059296954
4	0xbd8da94f	-0.06917059
5	0x3d46e9b8	0.048562735
6	0x3d23e67b	0.040014725
7	0x3d125034	0.03572102
8	0x3d2119a0	0.03933108
9	0xbd0452e1	-0.032305602
10	0xbc86310f	-0.016380815
11	0x3bd0946b	0.006365349
12	0xbd83b3d3	-0.06430783
13	0xbc899123	-0.01679284
14	0xbe06f91b	-0.13180964
15	0x3c9ad830	0.018901914
16	0xbde2ffd2	-0.1108395
17	0xbd89c507	-0.06727033
18	0x3cc184f8	0.023622975
19	0xbc53fc71	-0.012938605
20	0x3c72b389	0.014813312
21	0xbda0c5aa	-0.078502014
22	0xbdcb4ebc	-0.09927127
23	0xbe025b6a	-0.12730184
24	0xbdc1f79b	-0.09471055
25	0xbdacc3e2	-0.08435799
26	0xbd275a1a	-0.040857412
27	0x3df26880	0.11836338
28	0xbeb2c78f	-0.34917876
29	0xbcdd0075	-0.026977757
30	0xbdd46b45	-0.103720225
31	0x3b3536d3	0.0027651086
32	0xbe277faf	-0.16357301
33	0x3cc514e3	0.024057811
34	0xbe1fa618	-0.15590703
35	0x3d5895b2	0.052877136
36	0x3d83bb20	0.06432176
37	0x3eb313d7	0.34976074
38	0xbd2ef04e	-0.04270964
39	0xbd8f4786	-0.06996064
40	0xbe06a1ba	-0.13147631
41	0xbdba15a0	-0.09086156
42	0xbd4a774f	-0.049430188
43	0x3cc515c2	0.024058226
44	0x3db01962	0.085985914
45	0x3ce78008	0.028259292
46	0x3dd088f6	0.10182373
47	0x3d603f8f	0.054748114
48	0xbbce974d	-0.0063046576
49	0x3da72098	0.08160514
50	0x3da24158	0.079226196
51	0x3cde4ed3	0.027137196
52	0x3b8a643c	0.0042233746
53	0x3deb7af4	0.11498061
54	0x3ba672fd	0.0050796256
55	0x3db0b7eb	0.086288296
56	0x3d35b79d	0.04436456
57	0x3d8cf1d2	0.06882061
58	0x3dbef12f	0.09323346
59	0x3daab7ca	0.08335836
60	0x3d57c8dd	0.052681793
61	0x3dacc85e	0.084366545
62	0xbc03e1c6	-0.008049434
63	0x3db245f1	0.087047465
64	0x3d461d61	0.04836786
65	0x3d275405	0.04085161
66	0x3e198f84	0.14996153
67	0x3e2af2a2	0.1669412
68	0x3df47b45	0.11937574
69	0x3d3c0782	0.045905598
70	0x3d57ec04	0.052715316
71	0x3d62c83b	0.055366736
72	0x3e4b123b	0.19831173
73	0x3d293c44	0.04131724
74	0xb9e9976d	-0.00044554044
75	0x3e2691d9	0.16266574
76	0x3e303e1d	0.17211194
77	0x3cd74b6a	0.026281077
78	0x3db40d2f	0.08791577
79	0xbe1f5c95	-0.15562661
80	0x3d99b776	0.075056955
81	0xbe17918b	-0.14801614
82	0xbe6d4cae	-0.23173782
83	0xbde3db7b	-0.11125847
84	0xbe213f65	-0.1574684
85	0xbe91eef3	-0.28502616
86	0xbe329856	-0.17440924
87	0xbdb5a8d0	-0.08870089
88	0xbe05617a	-0.13025466
89	0xbdd127d7	-0.10212677
90	0xbd9594d8	-0.0730378
91	0xbe565f1f	-0.20934723
92	0xbe11832e	-0.14210197
93	0xbd8cba3f	-0.06871461
94	0xbe785213	-0.24250059
95	0xbe815fb7	-0.25268337
96	0xbcb7692f	-0.022389023
97	0xbdd0b7bf	-0.10191297
98	0xbdbf03bc	-0.09326884
99	0x3b9d1e2f	0.004794858
100	0x3dc1063b	0.094250165
101	0xba35cf38	-0.000693548
102	0x3d4829d3	0.04886801
103	0x3cdb02b1	0.026734682
104	0x3d25ee15	0.040510256
105	0x3de01e7d	0.10943315
106	0x3d867aed	0.06566415
107	0x3db03dae	0.086055145
108	0xbd72845c	-0.05920826
109	0x3dce22fa	0.10065265
110	0x3e50a40f	0.20375083
111	0xbe541268	-0.20710146
112	0x3d186ce3	0.037213217
113	0xbdb7d424	-0.089760095
114	0x3df920e9	0.1216448
115	0x3e015cdb	0.12633078
116	0xbdaceb33	-0.08443298
117	0x3cefa0fa	0.029251564
118	0x3e1fdc11	0.15611292
119	0x3dcf96cb	0.10136183
120	0x3ddbe7c8	0.10737568
121	0x3e2c7eba	0.16845217
122	0x3e6a4d80	0.22881126
123	0x3b3c3a39	0.0028721227
124	0x3ccbb08e	0.024864461
125	0x3c7bc9e8	0.015367962
126	0xbde1cdd3	-0.11025586
127	0xbceeca90	-0.029149324
128	0xbd5bc290	-0.053652346
129	0xbe05891f	-0.13040589
130	0xbe2cafa3	-0.16863875
131	0xbe551789	-0.20809759
132	0xbe726e81	-0.23674966
133	0xbe993734	-0.2992493
134	0xbe729f09	-0.2369348
135	0xbc8f247e	-0.017473456
136	0xbdf3dd1b	-0.11907407
137	0xbdba4093	-0.09094348
138	0xbd3a2a47	-0.045450475
139	0xbe186edd	-0.14886041
140	0xbe0927de	-0.13394114
141	0xbc1b5a07	-0.009481913
142	0xbd56e2cf	-0.052462395
143	0x3aa3a192	0.0012484065
144	0xbda0e252	-0.07855667
145	0xbc7e3cff	-0.015517472
146	0xbc2a3232	-0.010387944
147	0xbc7dcaa1	-0.015490205
148	0x3ced8fbd	0.028999204
149	0x3d964bd5	0.073386826
150	0xbd643351	-0.055713
151	0x3ca4f59b	0.020136645
152	0x3cd513ee	0.02601048
153	0x3d203ccf	0.03912049
154	0xbe0fd760	-0.14047003
155	0x3d2f10f8	0.042740792
156	0x3d9d2e92	0.07674898
157	0xbe57c614	-0.21071655
158	0xbe7579dc	-0.23972267
159	0x3c4c0ea1	0.01245466
160	0xbd2c28b8	-0.04203102
161	0xbbdfcd29	-0.006829877
162	0x3df43682	0.11924459
163	0x3e4329aa	0.19058862
164	0x3e01688b	0.12637536
165	0x3e20e672	0.15712908
166	0x3e95954e	0.29215473
167	0x3e3ccccb	0.18437497
168	0x3d74c35d	0.059756625
169	0x3dce2994	0.10066524
170	0x3d1213f3	0.035663556
171	0xbd81d8d4	-0.06340185
172	0xbe20c086	-0.15698442
173	0xbda868d3	-0.08223119
174	0x3d938cf1	0.07204617
175	0x3e0dd5d4	0.138511
176	0xbe1056a1	-0.14095546
177	0xbd9f299d	-0.07771609
178	0xbe0f95f5	-0.14022048
179	0xbdb2e6c2	-0.0873542
180	0x3e5ff1aa	0.21869531
181	0xbdb0b0fb	-0.08627506
182	0x3d88b1db	0.06674548
183	0xbe15e4ba	-0.14638034
184	0xbeae19a3	-0.34003934
185	0xbbde1993	-0.006777951
186	0x3ecda75c	0.40166748
187	0x3e9b3ca9	0.30319718
188	0xbb9a2aa2	-0.0047047893
189	0x3cbde256	0.023179214
190	0xbddde5e9	-0.108348675
191	0xbd7d15d9	-0.061788414
192	0x3d00796f	0.031365808
193	0x3b94a17a	0.004535851
194	0xbdea291f	-0.114336245
195	0x3cf91d67	0.030409528
196	0xbdb74a1b	-0.08949681
197	0xbda3ce80	-0.07998371
198	0xbc1da88c	-0.009622704
199	0xbd27c031	-0.040954772
200	0xbd2d0ef6	-0.042250596
201	0xbdcf92b2	-0.10135402
202	0xbe10e89d	-0.14151235
203	0xbd1bdd1b	-0.03805266
204	0xbd8148ed	-0.063127376
205	0xbd827aa3	-0.06371047
206	0x3ca1cc3c	0.019750707
207	0xbde23524	-0.11045292
208	0xbdd356cb	-0.10319289
209	0xbdc0a962	-0.09407307
210	0xbd8b5ac0	-0.068044186
211	0xbd2918c4	-0.041283384
212	0xbd04c45a	-0.032413818
213	0x3c853482	0.01626039
214	0xbc995f7f	-0.018722294
215	0xbd3031de	-0.043016307
216	0xbd6945f6	-0.056951486
217	0xbd536a7b	-0.05161522
218	0xba909033	-0.0011029303
219	0x3dcb5efb	0.099302255
220	0x3e67584b	0.22592275
221	0x3e157650	0.14595914
222	0xbb11a328	-0.0022222493
223	0x3de800e7	0.11328297
224	0xbd4e5baf	-0.050380405
225	0x3dc57595	0.096415676
226	0x3dba0805	0.09083561
227	0x3da75853	0.081711434
228	0x3d07da61	0.033167247
229	0x3d6bf2d1	0.057604615
230	0x3caafd82	0.020872835
231	0x3ccdd2f2	0.025125
232	0x3d80f567	0.06296807
233	0x3d030a4f	0.031992253
234	0x3d3418f3	0.043969106
235	0x3d6fff55	0.058593113
236	0x3ca50eac	0.020148598
237	0x3d062cb7	0.032757487
238	0x3e1ea547	0.15492736
239	0x3d1c1a9f	0.038111325
240	0x3c3a50f2	0.011371838
241	0x3c791f73	0.015205252
242	0x3d907f25	0.07055501
243	0xbc02f6c1	-0.007993401
244	0xbd11d47b	-0.035603028
245	0xbcd8e50c	-0.026476406
246	0xbd7d1bfa	-0.06179426
247	0x3be4d0ea	0.0069829123
248	0xbd6615c7	-0.056173112
249	0x3c5e7c17	0.01357939
250	0xbd38f9fb	-0.045160275
251	0x3cc611d9	0.024178432
252	0xbda674ac	-0.08127722
253	0x3e5965fb	0.21230309
254	0x3e21386a	0.15744177
255	0x3d228dbf	0.03968596

body3.2.bias f4 [8]
0	0x3eaa8880	0.33307266
1	0xbd78b68d	-0.06072097
2	0xbdd2a490	-0.10285294
3	0xbd34230d	-0.04397874
4	0xbe59937a	-0.21247664
5	0x3d9989b8	0.07496971
6	0xbee98daa	-0.45615894
7	0xbe97ae19	-0.29625013

body4.0.weight f4 [16, 8, 3, 3]
0	0xbddd3d88	-0.10802752
1	0x3f17eda8	0.5934701
2	0x3f16cb4c	0.58903956
3	0xbdceb708	-0.10093504
4	0xbe85d4dc	-0.2613896
5	0x3caf5dd2	0.021407042
6	0x3d776f89	0.060409103
7	0xbe4e0a9f	-0.20121239
8	0xbd533563	-0.051564585
9	0x3d764d0b	0.060132068
10	0xbe3a9bdb	-0.18223517
11	0xbe40593a	-0.18784037
12	0x3d001fad	0.03128021
13	0x3e15a277	0.14612757
14	0x3c89ae6d	0.016806806
15	0x3d4881c9	0.048951898
16	0x3d5615e3	0.052266967
17	0x3d0dddd2	0.034635372
18	0x3d490d09	0.049084697
19	0xbe181a89	-0.14853872
20	0xbe5c3e4b	-0.21508138
21	0xbd20c6d7	-0.03925213
22	0x3e5a8a0f	0.21341728
23	0x3cbf6ea0	0.02336818
24	0xbd1fd778	-0.039023846
25	0xbb1d6e91	-0.0024022202
26	0xbd0d54b3	-0.034504604
27	0x3d902cc1	0.07039786
28	0xbe5344ed	-0.20631762
29	0xbd9b895f	-0.07594561
30	0x3d2a93e5	0.04164495
31	0xbadaa479	-0.0016681097
32	0xbda8de19	-0.08245487
33	0xbd1bcd16	-0.038037382
34	0x3d178c99	0.03699932
35	0x3d399d4a	0.04531602
36	0x3e6b0baa	0.22953668
37	0xbe995d01	-0.2995377
38	0xbed25579	-0.41080835
39	0x3cf26d8a	0.029593248
40	0x3b8070bf	0.0039196904
41	0x3c851e32	0.01624975
42	0x3d813833	0.06309547
43	0x3d5177f4	0.051139787
44	0x3db5d383	0.08878233
45	0xbc3e2ff4	-0.011608113
46	0xbe295ac3	-0.16538529
47	0xbcba11d1	-0.022713574
48	0x3dcc1a54	0.09965959
49	0xbdb91d7a	-0.09038825
50	0x3e188793	0.14895467
51	0xbd34e373	-0.044162225
52	0x3d76bb3c	0.060237154
53	0x3cdc0341	0.02685702
54	0x3e27dc72	0.16392687
55	0x3c5ae93e	0.013361273
56	0xbebb7d31	-0.3661895
57	0x3d71d34f	0.05903941
58	0x3eab1573	0.33414802
59	0xbe9d596b	-0.30732283
60	0xbd4df8f6	-0.050286256
61	0xbbc3c488	-0.005974356
62	0xbddf87af	-0.109145515
63	0x3e92c61d	0.28666773
64	0x3b5a9823	0.003335484
65	0xbf19ad32	-0.600299
66	0xbdbe3f49	-0.092894144
67	0x3f1598dc	0.5843637
68	0xbe9696bf	-0.29411885
69	0x3d7ac6d4	0.061224774
70	0xbd03aec7	-0.032149103
71	0xbb7bdb82	-0.0038430397
72	0x3c7f5cf8	0.01558613
73	0xbdcccc6a	-0.099999264
74	0x3ac1d3d5	0.0014787862
75	0xbc31fac1	-0.010863007
76	0xbd55083d	-0.05200981
77	0xbe02809a	-0.1274437
78	0xbc5f07d2	-0.013612704
79	0x3aa363e6	0.0012465685
80	0x3ccb6dad	0.02483257
81	0xbd2a630d	-0.04159837
82	0x3e13811e	0.14404723
83	0x3ea6fca0	0.32614613
84	0xbcf5292d	-0.02992686
85	0xbe4f42d0	-0.2024033
86	0x3dcf174d	0.10111866
87	0xbd44aa06	-0.04801371
88	0xbda2e212	-0.07953276
89	0xbd8bc740	-0.06825113
90	0x3ce1b8f5	0.027554015
91	0xbd26e992	-0.040750094
92	0xbdbd2d95	-0.0923721
93	0x3cc373c9	0.023858922
94	0xbd6c034c	-0.05762033
95	0xbcfc7b6f	-0.030820576
96	0xbb9b2511	-0.0047346433
97	0x3ba443f6	0.0050129844
98	0x3cfce20d	0.030869508
99	0xbdea298d	-0.114337064
100	0x3e64ab76	0.22331032
101	0x3e289c8c	0.16465968
102	0xbc5d7e6a	-0.013518909
103	0xbe5e2654	-0.21694309
104	0x3e29370c	0.16524905
105	0x3bfe2be3	0.0077566965
106	0x3cc82d84	0.024435766
107	0xbdee854f	-0.1164652
108	0xbd371054	-0.044693306
109	0x3db85727	0.09000998
110	0xbd42ff0e	-0.04760652
111	0xbc2211a7	-0.009891904
112	0x3dc13e5f	0.094357245
113	0x3cec4f96	0.028846543
114	0xbd90fb56	-0.070791885
115	0xbc920a7f	-0.01782727
116	0xbd2f05bd	-0.04273008
117	0xbd1cf299	-0.038317297
118	0x3d23b026	0.03996291
119	0xba928a0a	-0.0011180055
120	0x3cd4ae40	0.025961995
121	0xbd3a6679	-0.04550788
122	0x3b3d8179	0.0028916283
123	0xbc9a2e72	-0.018820975
124	0x3ca4800a	0.020080585
125	0x3c59bc56	0.013289532
126	0x3c1ba141	0.009498895
127	0x3d762f19	0.06010351
128	0x3db9224c	0.09039745
129	0x3bd3e7d9	0.0064668474
130	0x3e0959c9	0.13413157
131	0xbd14f68d	-0.03636794
132	0xbd2a70c4	-0.041611448
133	0x3cfba183	0.030716663
134	0xbd8e7194	-0.06955257
135	0xbb921efc	-0.00445926
136	0xbc87ebfa	-0.016592015
137	0x3cde55f0	0.027140588
138	0x3d133817	0.035942163
139	0x3db21a80	0.08696461
140	0xbc4c9631	-0.01248698
141	0xbc099bb1	-0.008398936
142	0x3d89032b	0.06690057
143	0x37dee1c0	2.6569585e-05
144	0x3e9cc7c8	0.3062117
145	0x3e087f23	0.13329749
146	0x3e430256	0.1904386
147	0x3c2075a3	0.009793672
148	0xbe79c2c9	-0.24390711
149	0x3d89ccce	0.067285165
150	0x3da28d76	0.07937138
151	0xbba170c6	-0.0049267737
152	0x3e3db5d8	0.18526399
153	0xbe5fae3f	-0.21843813
154	0xbe7d56ec	-0.2474019
155	0x3ea99ac8	0.331259
156	0x3e6ec002	0.23315433
157	0x3e18e941	0.1493273
158	0xbec4b8f4	-0.38422358
159	0x3c4e24d0	0.012582019
160	0x3dcd6c51	0.10030425
161	0xbb835fb6	-0.0040092124
162	0xbcb56be7	-0.022146178
163	0xbe274a04	-0.16336828
164	0x3ed97c90	0.42477846
165	0x3d00bac7	0.031428125
166	0x3e952d02	0.291359
167	0xbe892d28	-0.26792264
168	0x3dfccb59	0.12343473
169	0xbb055d34	-0.0020349743
170	0x3d25c2f9	0.040469144
171	0x3dd1df8b	0.102477156
172	0xbe42fce4	-0.19041783
173	0x3e8a2b74	0.26986277
174	0x3c805b7b	0.015668621
175	0xbd4f3dad	-0.050595928
176	0xbeac7f5a	-0.33690912
177	0xbe2745c9	-0.16335215
178	0x3e2e9304	0.1704827
179	0x3c8f5abf	0.017499326
180	0xbc912f0a	-0.017722625
181	0x3e87b5af	0.265058
182	0xbde9a86c	-0.11409077
183	0xba83edfd	-0.0010065433
184	0xbe269a35	-0.16269763
185	0x3e700c26	0.23442134
186	0x3e426424	0.18983513
187	0x3a5690af	0.00081850117
188	0x3dc110e0	0.09427047
189	0xbd9f33f8	-0.07773584
190	0x3d6823e1	0.05667484
191	0x3c1098c3	0.008825484
192	0x3caedbac	0.021344982
193	0xbb91d416	-0.0044503314
194	0xbc911e34	-0.017714597
195	0x3d3ca2b1	0.046053592
196	0x3ba76cdd	0.005109413
197	0xbd277667	-0.0408844
198	0xbc2df306	-0.010617023
199	0xbd71ee8b	-0.059065383
200	0x3e990f3a	0.2989443
201	0x3d136c17	0.035991754
202	0xbe683edd	-0.2268023
203	0xbe5f1bcb	-0.21787946
204	0xbc0eec0a	-0.008723268
205	0x3d2e2483	0.04251529
206	0xbcca5a49	-0.024701254
207	0xbdebae74	-0.11507884
208	0x3b979b00	0.0046266317
209	0x3e3f0e2d	0.18657751
210	0xbdece813	-0.11567702
211	0x3e012f65	0.12615736
212	0xbda1dd7a	-0.079035714
213	0x3e948e43	0.29014787
214	0xbe668b58	-0.22514093
215	0xb967dcd2	-0.00022112139
216	0xbd2a7f13	-0.041625094
217	0x3e55bb56	0.20872244
218	0xbe2affbf	-0.16699122
219	0x3ced5722	0.028972212
220	0xbe19f615	-0.15035279
221	0x3e3f8612	0.18703488
222	0x3db41e2b	0.087948166
223	0xbdcb4604	-0.09925464
224	0x3d8cf5e3	0.06882837
225	0xbd14f7f4	-0.03636928
226	0x3c832cde	0.016012605
227	0x3d6c2d6e	0.057660513
228	0xbdad38a1	-0.08458067
229	0xbd915072	-0.07095422
230	0x3e13f04a	0.14447132
231	0xbd85e148	-0.065371096
232	0xb7a4a837	-1.9628655e-05
233	0x3deebdbf	0.11657285
234	0xbc26e0e2	-0.010185452
235	0xbc8b1d3b	-0.016981712
236	0x3c252848	0.010080405
237	0x3c9317db	0.017955711
238	0x3e0fa41a	0.14027444
239	0xbe7e15f2	-0.24813059
240	0xbaf95a19	-0.0019024044
241	0x3c179da7	0.009253896
242	0xbc856942	-0.016285542
243	0xbcd9b699	-0.026576327
244	0x3d7318b5	0.059349734
245	0xbd8a998a	-0.067675665
246	0x3dea568f	0.11442291
247	0xbee38f08	-0.44445062
248	0x3ea4669f	0.32109544
249	0xbd9cc323	-0.07654407
250	0xbd1810ca	-0.037125386
251	0x3de9e4a9	0.114205666
252	0xbdb91e0a	-0.090389326
253	0xbd699155	-0.057023365
254	0x3df40e6e	0.11916815
255	0xbe074777	-0.13210855

body4.0.bias f4 [16]
0	0xbe96ab15	-0.294274
1	0x3c92b07e	0.017906424
2	0xbd81f896	-0.06346242
3	0x3c79290b	0.015207539
4	0xbe7731b0	-0.24140048
5	0x3eb37ac7	0.3505461
6	0x3d235763	0.03987826
7	0xbd65e772	-0.056128927
8	0xbd48d1fe	-0.04902839
9	0xbe06b481	-0.13154794
10	0xbebd96f9	-0.37029245
11	0x3dfc22f9	0.12311358
12	0xbcda626c	-0.02665826
13	0x3e97975c	0.29607666
14	0x3e964ccb	0.29355463
15	0x3de9a5d2	0.11408581
